snake_dql.pt (torch, 254492 bytes, 6 tensors)

fc1.weight f4 [256, 115]
0.032487325 -0.050517973 0.0462927 0.0005081246 0.045004334 -0.08572989 0.022309083 -0.016285865
-0.065521516 0.04775923 -0.012338572 -0.00602239 -0.031324595 0.0056106057 -0.0154466275 -0.058997143
-0.008396793 0.0031534466 -0.10136306 0.011300466 -0.013442233 0.048111133 0.008440575 0.062976316
-0.061281044 0.07800814 -0.028945398 -0.04094668 0.1110518 0.03741001 0.08767712 0.0064376094
-0.019335171 -0.0024200343 -0.029100742 -0.07475217 -0.042164687 0.061673224 -0.16734345 -0.029571595
-0.018495776 -0.14443439 -0.050661072 -0.056753762 -0.14419621 -0.009062447 -0.086786464 -0.12939928
-0.12299168 -0.02190372 -0.13883242 -0.020518648 -0.08059007 0.0783213 -0.03025991 -0.12898
-0.087108 -0.013497446 0.02941794 0.035081774 -0.0050214417 -0.08520572 0.014820402 0.049244665
0.07731499 0.0032726591 0.023387335 0.10227844 0.073224604 -0.039091457 0.051255252 0.055946007
-0.088980265 -0.06363081 0.057809465 -0.047268484 0.04552526 -0.0070442418 0.0035754952 0.0649433
0.02491223 -0.016232135 -0.047558103 -0.002913679 0.033307664 0.049004823 0.010617791 0.00045044807
0.0024437646 0.012859729 -0.047178272 0.0629027 0.06250884 -0.04404287 -0.07992327 -0.021158526
-0.05673773 -0.041768935 0.051238075 -0.051559106 -0.03956549 0.21616672 -0.2028657 -0.05189371
0.08114508 0.026401823 0.029025184 -0.04241647 0.082612306 -0.058704775 0.045889225 -0.018963438
-0.14907882 -0.07443538 0.09541649 0.047074918 0.041343797 -0.022660136 -0.0114505505 0.07947987
-0.070897974 0.026466545 0.03503342 0.014565194 0.013675152 -0.0041923164 -0.006023904 0.045718715
-0.0071868775 0.018824715 -0.029403022 0.07339895 -0.00014397052 0.05136977 -0.07159422 0.025860444
-0.031411216 0.059066452 -0.04941997 -0.021591298 -0.23583244 -0.4210075 -0.14004436 0.049376782
-0.028406233 -0.076753244 -0.22937723 -0.13722824 -0.108540475 -0.08832519 -0.05653462 -0.016056672
-0.08343722 -0.010990673 -0.16207068 0.0660296 -0.04472642 -0.028722014 -0.059342302 -0.050728627
0.044470623 -0.05300465 -0.022325017 -0.006255121 -0.07655364 0.1265207 0.09279639 0.030244472
-0.03591282 -0.053825147 0.076446086 0.070572264 0.09486053 0.018706767 0.026039125 0.04470566
0.060786363 -0.003641246 -0.011927265 0.04315231 -0.008552176 -0.011227202 -0.07490523 -0.043822553
-0.01971367 -0.026929885 0.038646348 -0.0419885 0.042798907 -0.03643529 0.024232723 -0.02122372
-0.081666104 0.034346286 0.1490664 -0.12936603 -0.055940535 0.008313975 -0.04955595 -0.014386891
-0.04125237 -0.03115158 0.061254133 -0.0697736 -0.06515902 0.057848744 0.009108785 -0.039274767
-0.024980735 0.06607578 0.025296045 0.012239139 0.014889329 -0.009227641 0.05437806 -0.21907583
-0.13032617 0.040131737 0.15076855 -0.35115454 0.03780269 0.13854674 0.06625744 0.13798888
-0.18785495 0.035655335 -0.0015816326 -0.025439708 -0.00068815256 0.09785611 0.18589248 0.1648069
-0.05364836 -0.008476921 0.040150378 0.11026462 -0.06317698 0.024961272 0.0122607425 -0.023676306
0.054946396 0.02224492 0.06861599 0.021674199 -0.041807648 0.062226426 -0.0429247 0.031503662
-0.1553662 -0.091763295 0.009343902 0.072041325 0.011814309 -0.07253513 0.06264892 0.13036008
00000000: 6e11 053d efeb 4ebd 6a9d 3d3d aa33 053a
00000010: 7756 383d 2793 afbd 8ac1 b63c ef69 85bc
00000020: 2530 86bd 2f9f 433d b927 4abc 7857 c5bb
00000030: 384e 00bd 2cd9 b73b da13 7dbc fda6 71bd
00000040: b492 09bc 0eaa 4e3b 7097 cfbd 9725 393c
00000050: d03c 5cbc 2e10 453d 564a 0a3c baf9 803d
00000060: d501 7bbd bbc2 9f3d e61e edbc b5b7 27bd
00000070: 206f e33d 3d3b 193d 1090 b33d 95f2 d23b
00000080: cb64 9ebc 7099 1ebb ae64 eebc aa17 99bd
00000090: e1b4 2cbd 109d 7c3d 155c 2bbe 2140 f2bc
000000a0: 7484 97bc 9ce6 13be fc81 4fbd a276 68bd
000000b0: 2ca8 13be a87a 14bc 1abd b1bd 3f81 04be
000000c0: 10e3 fbbd 6e6f b3bc 162a 0ebe b916 a8bc
000000d0: 680c a5bd eb66 a03d a1e3 f7bc 5513 04be
000000e0: ae65 b2bd 6424 5dbc e4fd f03c e8b1 0f3d
000000f0: e88a a4bb 5680 aebd 45d1 723c c6b4 493d
00000100: 5257 9e3d 1c7a 563b cc96 bf3c 5c77 d13d
00000110: c8f6 953d 5d1e 20bd 07f1 513d a427 653d
00000120: 493b b6bd df50 82bd 9ec9 6c3d 999c 41bd
00000130: b278 3a3d 62d3 e6bb db52 6a3b fe00 853d
00000140: bc14 cc3c 41f9 84bc 49cc 42bd 6cf3 3ebb
00000150: 9e6d 083d 48b9 483d 3ef6 2d3c 1e2a ec39
00000160: 9127 203b 9db1 523c 013e 41bd 21d3 803d
00000170: a204 803d 4c66 34bd d0ae a3bd a554 adbc
00000180: d265 68bd e715 2bbd 04df 513d a42f 53bd
00000190: 6c0f 22bd cf5a 5d3e 07bc 4fbe 808e 54bd
000001a0: 642f a63d a348 d83c 39c6 ed3c e4bc 2dbd
000001b0: a430 a93d 6b74 70bd 57f6 3b3d 3659 9bbc
000001c0: 1ea8 18be 9471 98bd b969 c33d a1d1 403d
000001d0: 1d58 293d c0a1 b9bc 179b 3bbc 58c6 a23d
000001e0: f532 91bd 5ed0 d83c 347f 0f3d daa2 6e3c
000001f0: bf0d 603c b35f 89bb 2b64 c5bb 8c43 3b3d
00000200: e67f ebbb 4a36 9a3c 9bde f0bc 3052 963d
00000210: cbf6 16b9 1c69 523d fe9f 92bd 48d9 d33c
00000220: 0ca9 00bd aaef 713d 986c 4abd 3ce0 b0bc
00000230: 0f7e 71be 4c8e d7be ca67 0fbe 4f3f 4a3d
00000240: 30b4 e8bc ce30 9dbd dde1 6abe 8f85 0cbe
00000250: 784a debd d6e3 b4bd d890 67bd 4889 83bc
00000260: 22e1 aabd 3912 34bc dbf5 25be 873a 873d
00000270: 0d33 37bd 6e4a ebbc ea10 73bd d2c8 4fbd
00000280: d426 363d 671b 59bd f4e2 b6bc c2f7 ccbb
00000290: 28c8 9cbd a48e 013e 090c be3d 41c3 f73c
000002a0: 5219 13bd c277 5cbd c48f 9c3d 3188 903d
000002b0: 3d46 c23d ef3e 993c 0150 d53c 481d 373d
000002c0: 1ffb 783d f8a1 6ebb 936a 43bc 7ac0 303d
000002d0: 6d1e 0cbc 4cf2 37bc ea67 99bd 477f 33bd
000002e0: 907e a1bc 109c dcbc a24b 1e3d 22fc 2bbd
000002f0: e84d 2f3d 2c3d 15bd b483 c63c 5edd adbc
00000300: 8f40 a7bd b1ae 0c3d dda4 183e 8778 04be
00000310: e721 65bd 5737 083c 2efb 4abd ffb6 6bbc
00000320: 3ff8 28bd 9931 ffbc 9de5 7a3d 76e5 8ebd
00000330: 1872 85bd cef2 6c3d 033d 153c 94de 20bd
00000340: 66a4 ccbc bd52 873d a739 cf3c ab86 483c
00000350: 5ff2 733c 882f 17bc 87bb 5e3d 6a55 60be
00000360: 3974 05be 2d61 243d 1263 1a3e 87ca b3be
00000370: fed6 1a3d 32df 0d3e fbb1 873d f54c 0d3e
00000380: 0c5d 40be 540b 123d c94e cfba ef66 d0bc
00000390: 2365 34ba c968 c83d 995a 3e3e 24c3 283e
000003a0: 62be 5bbd c9e2 0abc b974 243d 6bd2 e13d
000003b0: ef62 81bd 957b cc3c 48e1 483c d0f4 c1bc
000003c0: 790f 613d fa3a b63c 8a86 8c3d 178e b13c
000003d0: 7f3e 2bbd 23e1 7e3d cfd1 2fbd fc09 013d
000003e0: 5118 1fbe 65ee bbbd 2a17 193c 678a 933d
000003f0: ce90 413c 4c8d 94bd 144e 803d 1d7d 053e

fc1.bias f4 [256]
0.13647784 -0.007006511 -0.01255659 0.1028279 -0.14349934 -0.1350039 -0.15606944 -0.037214812
0.058301777 -0.07519268 0.065283164 -0.1384811 0.09579963 0.024945663 -0.010332219 0.14768018
0.010474905 -0.0029060317 -0.017257052 -0.011491231 0.06169645 0.013376674 -0.04942039 0.072422475
0.07649955 -0.30016074 0.07879904 0.028654711 -0.010240645 -0.03131402 -0.043024644 0.037283022
0.08073462 0.0030229492 0.008458091 -0.07573414 0.029136224 0.04326185 0.012914067 0.08168579
-0.0023305537 0.0030462781 -0.14032774 -0.02971942 0.0946178 -0.047604855 -0.040579267 0.0434173
-0.0956023 0.13150306 0.02506722 -0.013150729 0.009831666 -0.010106834 0.07038271 0.050743163
-0.05937937 -0.14658579 0.018479431 -0.037525885 -0.036445525 -0.061097816 0.017905535 -0.07568627
0.110102504 0.15058832 0.013250243 -0.066630945 -0.085137 -0.0077353087 0.084129244 -0.07356013
-0.031335987 -0.0017291674 -0.109336756 -0.039082218 0.029564 0.040868703 -0.077193655 0.039895844
-0.09161233 0.010069618 -0.12271644 0.09722729 -0.014321499 0.11777838 -0.018957386 0.051684953
0.058036197 0.009378472 0.0935531 0.094293855 -0.024666516 0.015779428 0.028135343 -0.056062046
0.019075723 0.11835233 0.05505274 -0.016314367 0.012649208 -0.015929006 -0.0029915944 0.054230027
0.07417329 0.065514095 0.10806783 0.117506996 0.0021228818 -0.06454066 0.028385932 0.009783096
-0.0006128816 0.06742048 0.036328565 0.09719814 -0.027707515 -0.1191333 -0.119451195 0.01248329
0.022348901 -0.029774053 0.024218777 0.03269459 0.08987963 -0.06636493 0.037955504 -0.06874678
0.07064493 0.08502132 -0.044100225 -0.07956594 -0.060915645 -0.02571736 -0.16952084 -0.07103112
-0.044339124 0.10819906 0.038236387 -0.016728673 -0.018316178 0.1552305 0.1276009 -0.09936397
0.12387214 -0.00880617 -0.08891486 -0.05524199 0.034876212 -0.18439393 0.08238259 -0.0019542526
-0.010327465 -0.029862462 0.01805869 0.016256232 -0.020396695 0.013747976 -0.004824725 -0.0050428202
0.022230836 0.041685257 0.027663507 0.0053199613 0.008523377 0.07987776 0.08795772 0.06690328
-0.13835259 -0.018188886 0.04579758 -0.04881438 -0.014555994 -0.113621496 -0.10549622 0.055739228
-0.1333739 -0.032630403 -0.0986138 -0.04186875 -0.120720915 0.058100577 0.052163467 -0.032717794
0.028098058 0.05226115 -0.13908035 0.06618673 0.02833311 -0.09368675 -0.037654996 0.07558185
0.0760245 -0.033303037 0.09583713 -0.025956111 0.05741348 -0.055359066 -0.15419477 0.046840873
0.030967435 -0.04956275 0.09347262 -0.12903473 -0.05641075 -0.011804763 -0.028262313 -0.09800355
-0.07136809 0.044124957 -0.023268346 -0.09036646 0.016662527 -0.041102853 -0.045834675 -0.09763087
0.13964078 -0.01823631 -0.11469313 0.008693026 -0.032072395 0.0018788072 0.09730403 0.073508106
0.022312954 0.051506497 0.00893607 -0.05515686 -0.014713011 -0.023866352 -0.105402656 0.019374939
0.013831711 -0.059702788 0.021577816 0.042743687 0.04770094 -0.008711096 0.015048355 -0.008426902
0.033844505 0.06984058 0.03123735 0.035972692 -0.119417675 -0.07131829 0.08464173 -0.062877074
0.06316841 -0.12419759 0.14159526 -0.13686459 0.0159034 -0.018593077 0.0029810383 -0.3022087
00000000: d9c0 0b3e e096 e5bb 28ba 4dbc 6f97 d23d
00000010: 7ef1 12be 763e 0abe abd0 1fbe 8f6e 18bd
00000020: d8cd 6e3d 9ffe 99bd 2eb3 853d fdcd 0dbe
00000030: 9932 c43d d95a cc3c 7848 29bc 7939 173e
00000040: f09e 2b3c 1f73 3ebb a95e 8dbc b745 3cbc
00000050: 6bb5 7c3d d629 5b3c 096d 4abd 3c52 943d
00000060: ccab 9c3d abae 99be 6461 a13d 49bd ea3c
00000070: 61c8 27bc 2143 00bd 9c3a 30bd 15b6 183d
00000080: 3158 a53d ac1c 463b ce93 0a3c 801a 9bbd
00000090: 17af ee3c 5633 313d 8695 533c e14a a73d
000000a0: 34bc 18bb 11a4 473b 13b2 0fbe 2476 f3bc
000000b0: fac6 c13d 4ffd 42bd 7236 26bd 57d6 313d
000000c0: 23cb c3bd bda8 063e c559 cd3c 2876 57bc
000000d0: ff14 213c 2297 25bc cf24 903d 10d8 4f3d
000000e0: c837 73bd 961a 16be 2d62 973c beb4 19bd
000000f0: e747 15bd b441 7abd a1ae 923c 6701 9bbd
00000100: 6c7d e13d d333 1a3e 8c17 593c ce75 88bd
00000110: 4f5c aebd 7978 fdbb f44b ac3d b2a6 96bd
00000120: 2a5a 00bd 3ba5 e2ba f3eb dfbd ad14 20bd
00000130: 3430 f23c f165 273d b517 9ebd d369 233d
00000140: 3f9f bbbd 0afb 243c c252 fbbd 1a1f c73d
00000150: b8a4 6abc cb35 f13d 854c 9bbc 9ab3 533d
00000160: 5db7 6d3d 2aa8 193c c598 bf3d 231d c13d
00000170: 6f11 cabc dc43 813c 177c e63c 51a1 65bd
00000180: b144 9c3c b562 f23d fb7e 613d b5a5 85bc
00000190: a03e 4f3c 8c7d 82bc a00e 44bb 4e20 5e3d
000001a0: 2ae8 973d 412c 863d ab52 dd3d 82a7 f03d
000001b0: 0c20 0b3b e52d 84bd 9d89 e83c 4749 203c
000001c0: caa9 20ba c013 8a3d 43cd 143d d20f c73d
000001d0: dffa e2bc 29fc f3bd d4a2 f4bd b786 4c3c
000001e0: 0b15 b73c b7e8 f3bc 7566 c63c c3ea 053d
000001f0: d012 b83d 56ea 87bd 3b77 1b3d 1dcb 8cbd
00000200: 4aae 903d a81f ae3d 70a2 34bd 78f3 a2bd
00000210: af82 79bd 37ad d2bc df96 2dbe c478 91bd
00000220: f19c 35bd 7897 dd3d c29d 1c3d 920a 89bc
00000230: cf0b 96bc bff4 1e3e cfa9 023e 567f cbbd
00000240: adb0 fd3d c147 10bc fe18 b6bd 6d45 62bd
00000250: 5cda 0e3d c3d1 3cbe 34b8 a83d eb12 00bb
00000260: 8734 29bc 1fa2 f4bc d1ef 933c ca2b 853c
00000270: f816 a7bc 313f 613c ba18 9ebb 3e3e a5bb
00000280: 711d b63c 29be 2a3d 949e e23c 1253 ae3b
00000290: a2a5 0b3c f396 a33d 2d23 b43d 9604 893d
000002a0: 4dac 0dbe dc00 95bc 3e96 3b3d 96f1 47bd
000002b0: 447c 6ebc 63b2 e8bd 670e d8bd d14e 643d
000002c0: 2b93 08be 75a7 05bd 08f6 c9bd 917e 2bbd
000002d0: 873c f7bd dffa 6d3d 5ca9 553d 1803 06bd
000002e0: e62d e63c ca0f 563d 146b 0ebe e98c 873d
000002f0: d71a e83c d7de bfbd 203c 1abd a8ca 9a3d
00000300: bcb2 9b3d c468 08bd 4246 c43d e9a1 d4bc
00000310: 662a 6b3d 30c0 62bd 3ce5 1dbe 37dc 3f3d
00000320: 6baf fd3c 4f02 4bbd 936e bf3d ae21 04be
00000330: f50e 67bd c468 41bc 5e86 e7bc 16b6 c8bd
00000340: 6f29 92bd 5fbc 343d 429d bebc 0d12 b9bd
00000350: da7f 883c 775b 28bd 24bd 3bbd b2f2 c7bd
00000360: fefd 0e3e 5064 95bc 3be4 eabd 326d 0e3c
00000370: 585e 03bd 4f42 f63a 5647 c73d 6b8b 963d
00000380: a8c9 b63c 7af8 523d 9868 123c 29ec 61bd
00000390: d70e 71bc 5e83 c3bc 59dd d7bd 31b8 9e3c
000003a0: 679e 623c e98a 74bd f6c3 b03c 0114 2f3d
000003b0: 1062 433d fcb8 0ebc 608d 763c fd10 0abc
000003c0: 89a0 0a3d 9408 8f3d 79e5 ff3c 1a58 133d
000003d0: 4191 f4bd 530f 92bd a558 ad3d b2c5 80bd
000003e0: 705e 813d 4e5b febd 59fe 103e 3b26 0cbe
000003f0: d947 823c 8250 98bc 865d 433b 19bb 9abe

fc2.weight f4 [128, 256]
0.027235566 -0.08469589 0.027143884 -0.0011977424 0.022643374 -0.023530906 -0.10571651 -0.00092261075
0.08318894 -0.11378602 -0.026468424 -0.04648356 0.035842493 0.1014478 -0.077439316 0.0027780458
0.016047705 -0.07175484 -0.066465706 -0.03401126 0.061182365 -0.047607332 0.08246965 -0.069368854
-0.10125882 0.111400604 0.067594364 -0.020983368 -0.00851151 0.1487458 0.028673425 -0.007941348
-0.13886672 0.057610147 0.063674785 0.008977582 -0.14586648 0.09325295 0.002718294 0.211929
-0.1987313 0.08178437 0.10141796 -0.15095687 -0.02001271 0.11244428 0.095257185 -0.10704578
0.016227838 -0.0390126 0.058958735 -0.047888175 -0.06483266 0.104693234 0.048742704 -0.02599784
0.046452984 -0.09183775 -0.0259306 -0.108091496 0.028125199 -0.02576855 -0.0067912787 -0.26058972
-0.07019023 0.057302944 -0.0716327 0.12371251 -0.013573352 -0.050260607 0.00035617925 -0.044435535
-0.08141637 -0.09186843 0.010178638 0.008581302 0.05274443 0.0075341566 0.040883206 0.11885626
0.14606135 0.11019126 -0.018165134 -0.044526517 0.2168283 -0.087729044 0.0879201 -0.11949889
0.07029826 0.1189078 0.02547196 0.15673725 -0.05876326 0.0034533741 0.024384666 0.051272787
-0.07640646 -0.06762368 0.079340056 -0.014111001 0.02715208 -0.033572435 0.013098411 -0.08617493
-0.020047238 -0.00083352457 -0.12794185 -0.051751748 0.020608602 0.10346461 0.08365025 -0.07467796
0.103522055 -0.030875616 -0.030546349 0.043548718 0.045700252 0.09001856 0.049179368 0.0594047
0.18810661 -0.027452305 -0.050083533 0.014653735 0.026307432 0.11732324 -0.032575466 -0.010284338
0.03619488 0.15992053 -0.008195358 0.021991298 -0.13394824 0.064124055 -0.09916339 0.07419145
-0.14352106 -0.041241195 0.37182692 -0.06469035 -0.020286424 -0.07975925 -0.049494375 0.19843161
0.05676443 0.017291376 -0.19008821 -0.046584208 0.04542185 0.22369939 -0.07223428 -0.17489693
-0.12664978 0.044179637 -0.0071873055 -0.04372115 -0.0058846273 -0.029632444 -0.22558841 -0.023123575
0.12393016 0.050548036 0.07948777 0.10780367 0.12277554 -0.08838604 -0.119806804 -0.0068326453
-0.004111864 -0.042230926 -0.08883482 0.016648492 -0.06809801 0.03740351 -0.10957219 -0.0049309363
0.113978855 -0.07757014 -0.070665345 0.011864659 0.07931226 0.14845327 -0.060169112 0.07085303
-0.032855984 -0.10512043 0.107261 -0.04844329 0.1491248 0.047289908 -0.064964645 -0.03260704
0.012073144 0.08959669 -0.15216935 -0.06692677 -0.055712502 -0.04027722 0.044029474 -0.12869479
0.04678566 -0.011470397 -0.12848027 0.050663736 -0.087021135 0.101635866 0.022185856 0.07114311
-0.100588314 -0.058520585 -0.13449539 0.070037946 0.059179697 0.0039044553 -0.016569275 -0.09051868
0.03196739 -0.017629866 0.20402285 0.07046505 0.11426361 0.12686844 -0.08391905 -0.050284415
0.15656787 -0.036354456 -0.06172578 0.019571854 -0.035874937 -0.017769972 0.12052245 -0.056707732
0.013208629 -0.026019666 -0.020010682 0.102350734 -0.080688454 -0.061729927 0.11472137 0.06479342
-0.049551696 -0.056682624 0.07699575 -0.027577188 0.21394289 0.056802787 0.05703454 0.015993547
-0.056558933 -0.032003023 -0.098121434 0.10150444 -0.09117376 0.18851851 -0.13357544 0.0074636983
00000000: 1f1d df3c 0a75 adbd da5c de3c 91fd 9cba
00000010: 997e b93c e3c3 c0bc e681 d8bd 5cdb 71ba
00000020: f75e aa3d a508 e9bd 4fd4 d8bc 8c65 3ebd
00000030: 94cf 123d ddc3 cf3d 8198 9ebd e00f 363b
00000040: 7a76 833c 34f4 92bd 2c1f 88bd 644f 0bbd
00000050: 5c9a 7a3d e8ff 42bd d9e5 a83d 4211 8ebd
00000060: c960 cfbd 0026 e43d ea6e 8a3d 50e5 abbc
00000070: dc73 0bbc d250 183e 88e4 ea3c 6d1c 02bc
00000080: 1433 0ebe 9ef8 6b3d ed67 823d b516 133c
00000090: 065e 15be 67fb be3d 6825 323b ea03 593e
000000a0: 3880 4bbe 907e a73d 38b4 cf3d 7094 1abe
000000b0: b2f1 a3bc 3049 e63d 3316 c33d d13a dbbd
000000c0: 3ef0 843c adcb 1fbd b77e 713d 6426 44bd
000000d0: fcc6 84bd 6869 d63d 6ea6 473d 6cf9 d4bc
000000e0: 7c45 3e3d 6e15 bcbd 696c d4bc 135f ddbd
000000f0: d166 e63c 9118 d3bc 6089 debb 046c 85be
00000100: e5bf 8fbd 7eb6 6a3d 2ab4 92bd fc5c fd3d
00000110: c462 5ebc 11de 4dbd 92bd ba39 0902 36bd
00000120: a0bd a6bd 8425 bcbd 4dc4 263c 9798 0c3c
00000130: 8b0a 583d 16e1 f63b 2675 273d e96a f33d
00000140: 1b91 153e f5ab e13d 0ccf 94bc 7061 36bd
00000150: 3d08 5e3e 49ab b3bd 740f b43d d6bb f4bd
00000160: 89f8 8f3d ef85 f33d 92aa d03c bb7f 203e
00000170: beb1 70bd 0152 623b 5ac2 c73c 6a03 523d
00000180: fd7a 9cbd 497e 8abd 0a7d a23d d431 67bc
00000190: 0a6e de3c 4083 09bd b89a 563c 7b7c b0bd
000001a0: 1b3a a4bc e380 5aba 3003 03be a4f9 53bd
000001b0: 5fd3 a83c 41e5 d33d d350 ab3d c2f0 98bd
000001c0: 5f03 d43d dcee fcbc 563c fabc 2460 323d
000001d0: 3030 3b3d a75b b83d 4e70 493d 5852 733d
000001e0: 059f 403e a8e3 e0bc 6424 4dbd 3816 703c
000001f0: af82 d73c 2b47 f03d da6d 05bd a47f 28bc
00000200: 1541 143d 35c2 233e d345 06bc 1827 b43c
00000210: ba29 09be 7953 833d 2d16 cbbd b0f1 973d
00000220: 2ff7 12be 87ec 28bd 1960 be3e 607c 84bd
00000230: b72f a6bc d158 a3bd 9dba 4abd a831 4b3e
00000240: d281 683d a5a6 8d3c 7ca6 42be 15cf 3ebd
00000250: 430c 3a3d 7411 653e 91ef 93bd 2e18 33be
00000260: 7bb0 01be b5f5 343d 7d83 ebbb f314 33bd
00000270: d5d3 c0bb bdbf f2bc a600 67be a76d bdbc
00000280: 19cf fd3d 750b 4f3d 7cca a23d 2cc8 dc3d
00000290: be71 fb3d bd03 b5bd 455d f5bd 62e4 dfbb
000002a0: d1bc 86bb 56fa 2cbd 08ef b5bd 6b62 883c
000002b0: f876 8bbd 6c34 193d 6267 e0bd b193 a1bb
000002c0: bf6d e93d 18dd 9ebd feb8 90bd fd63 423c
000002d0: 776e a23d 2204 183e e373 76bd 651b 913d
000002e0: ff93 06bd 6149 d7bd a8ab db3d 796c 46bd
000002f0: 2cb4 183e 10b3 413d 2f0c 85bd f68e 05bd
00000300: 70ce 453c 787e b73d 48d2 1bbe e710 89bd
00000310: cb32 64bd baf9 24bd 4058 343d 91c8 03be
00000320: 52a2 3f3d 55ee 3bbc 5590 03be c784 4f3d
00000330: 2338 b2bd 7726 d03d 1dbf b53c 7bb3 913d
00000340: 3f01 cebd 48b3 6fbd 29b9 09be 0e70 8f3d
00000350: 6966 723d e4e1 7f3b 4abc 87bc dc61 b9bd
00000360: 3df0 023d 826c 90bc 5eeb 503e fb4f 903d
00000370: 0a03 ea3d cde9 013e c0dd abbd 08f7 4dbd
00000380: 5453 203e 69e8 14bd 2cd4 7cbd 2755 a03c
00000390: 99f1 12bd 5592 91bc 79d4 f63d 5e46 68bd
000003a0: 0169 583c 3227 d5bc 71ed a3bc 439d d13d
000003b0: fd3f a5bd 85d8 7cbd 0af3 ea3d 6ab2 843d
000003c0: b8f6 4abd 0a2c 68bd f3af 9d3d 8ee9 e1bc
000003d0: d813 5b3e 0aaa 683d 0d9d 693d e604 833c
000003e0: 57aa 67bd 9a15 03bd e4f3 c8bd 8fe1 cf3d
000003f0: 4fb9 babd ff0a 413e 00c8 08be 0a92 f43b

fc2.bias f4 [128]
-0.023480931 -0.088248685 -0.06994177 -0.01893656 -0.011254846 0.04655481 -0.05238274 0.028916199
-0.06807268 0.043927547 0.026545487 0.029114483 0.056749903 -0.13320549 -0.08045924 0.10071846
-0.074504025 -0.037936352 0.14242156 -0.049573638 0.081556745 -0.05016352 0.026859 -0.05805346
0.09428461 0.059535466 -0.022909965 0.1294429 -0.0628553 0.005534286 -0.01638267 -0.071855925
0.018683989 0.022948217 0.05708974 -0.08114417 0.049153402 -0.059697155 0.09449101 -0.01243608
-0.04060104 0.12202063 0.045502212 -0.06355666 0.06775434 0.07215622 0.123513356 -0.067745574
-0.04895325 0.024503198 -0.09167261 0.112388514 -0.07793992 -0.012738881 -0.053645894 0.1300112
-0.03381814 0.17030552 0.051697534 -0.10767035 0.0098231165 0.045671545 0.07034483 -0.039335426
0.0005915218 0.07477635 -0.05154062 0.04810694 -0.053877365 -0.0034538354 -0.06200248 -0.014472325
0.1242128 0.03156085 0.05314811 0.08793855 -0.040211115 0.037472375 0.07838114 -0.0007068496
0.044195198 0.055821504 0.12257852 0.0016494466 0.09904459 -0.06756879 0.05624393 -0.025442729
-0.035862118 -0.017434878 0.02998175 0.0037440173 0.059236616 -0.008896984 0.023839565 0.06255587
0.048227888 -0.06537129 0.043125097 -0.012953587 -0.03784287 0.024106592 -0.031641755 0.0689818
-0.045960598 0.05212636 0.013854603 0.053539023 -0.035017613 -0.06798795 0.056968406 -0.07828877
-0.051344264 0.04527324 -0.04595579 0.11943809 -0.06894461 0.072188586 0.07470993 -3.3512297e-05
-0.031403594 0.028264638 -0.017745513 0.046954837 0.014893414 0.074207135 0.038365647 0.016407143
00000000: 155b c0bc babb b4bd a13d 8fbd d820 9bbc
00000010: 3f66 38bc 42b0 3e3d 498f 56bd aae1 ec3c
00000020: b069 8bbd 5fed 333d ec75 d93c 7f81 ee3c
00000030: 9672 683d 0567 08be d0c7 a4bd 7b45 ce3d
00000040: 9195 98bd 2663 1bbd f5d6 113e ba0d 4bbd
00000050: 3907 a73d 4378 4dbd 6807 dc3c 77c9 6dbd
00000060: 4a18 c13d 76db 733d aead bbbc ae8c 043e
00000070: 48ba 80bd f558 b53b f334 86bc 3329 93bd
00000080: 2a0f 993c e6fd bb3c eed6 693d ea2e a6bd
00000090: 1455 493d 0185 74bd 8184 c13d b3c0 4bbc
000000a0: 474d 26bd f4e5 f93d 8760 3a3d ff29 82bd
000000b0: cac2 8a3d a4c6 933d 92f4 fc3d 31be 8abd
000000c0: 3483 48bd eeba c83c d9be bbbd f32b e63d
000000d0: f79e 9fbd bdb6 50bc ccbb 5bbd a821 053e
000000e0: e484 0abd 9264 2e3e cbc0 533d 4682 dcbd
000000f0: 23f1 203c 1612 3b3d f310 903d 2f1e 21bd
00000100: 5b10 1b3a 5824 993d 421c 53bd c80b 453d
00000110: 83ae 5cbd be59 62bb 50f6 7dbd 551d 6dbc
00000120: 4863 fe3d f345 013d d5b1 593d 2019 b43d
00000130: 69b4 24bd a27c 193d 4b86 a03d e04b 39ba
00000140: 0606 353d 17a5 643d 720a fb3d 3e32 d83a
00000150: e4d7 ca3d 8161 8abd 0960 663d 456d d0bc
00000160: 28e4 12bd 97d3 8ebc 499c f53c 305e 753b
00000170: 18a2 723d a8c4 11bc 314b c33c 4b1d 803d
00000180: 9b8a 453d 62e1 85bd f1a3 303d 483b 54bc
00000190: 2001 1bbd 307b c53c c99a 01bd 5446 8d3d
000001a0: 2e41 3cbd 7382 553d 6bfe 623c bc4b 5b3d
000001b0: a16e 0fbd 443d 8bbd b457 693d dd55 a0bd
000001c0: 5d4e 52bd 6f70 393d 233c 3cbd f59b f43d
000001d0: d532 8dbd 9cd7 933d 8501 993d 8e8f 0cb8
000001e0: 0ea1 00bd 3e8b e73c 0a5f 91bc b753 403d
000001f0: 8203 743c e9f9 973d 4c25 1d3d 4668 863c

out.weight f4 [3, 128]
-0.31430456 -0.33990464 -0.03810263 0.1640073 -0.14981416 0.03482787 -0.0012058399 0.013486519
0.0116537865 0.14718826 -0.12605552 -0.06455856 0.08219005 -0.29136187 0.025522267 0.089542136
-0.29861704 0.012514324 0.14094722 -0.09352625 0.034349427 -0.07628897 -0.08480528 0.05609888
0.14023761 0.1209115 -0.075704396 0.13933152 -0.15470366 -0.32971025 -0.15575123 0.0404029
0.09405281 0.17453694 0.043733884 -0.07140297 0.04900823 -0.06775473 0.06415659 -0.05451982
-0.27901444 0.090426564 0.020584129 -0.015421103 0.104070425 0.089774095 0.13299072 -0.034093518
-0.17404237 0.13805945 0.06424131 0.095788725 -0.20935483 0.048318423 0.026035335 0.1103243
0.016806673 0.15527795 -0.032331508 -0.3196938 -0.16065204 0.074840404 0.071287714 -0.12502047
0.0035591875 0.08231175 -0.0702465 -0.1624489 -0.12041593 0.08954292 -0.065141365 -0.25408188
0.050750088 0.02716337 0.047994778 -0.017781116 -0.058675915 0.09573155 0.13150965 0.1380776
0.11754666 -0.010617025 0.07395008 -0.09576866 0.13386986 -0.046566866 0.10166425 -0.14849822
0.035115223 0.22112937 0.053888835 -0.068308294 0.033550087 -0.005255631 -0.08416583 -0.059280727
0.08062263 0.07555236 0.011036741 0.06152853 -0.13270499 -0.02328379 0.039147694 0.08196174
-0.16706593 0.012545998 0.057667974 -0.13403602 -0.061413128 -0.056114025 0.034251925 0.037197918
-0.051654533 -0.083928 -0.21739753 0.101398386 -0.06664072 0.10082385 0.09514451 -0.15381783
-0.06787478 0.023120655 -0.27312425 0.09603037 -0.27508005 0.14494081 -0.021103371 -0.024411703
0.084949024 -0.1860328 0.023094572 0.09877456 -0.13571247 -0.2743918 -0.20897986 -0.10036298
-0.03884102 -0.0429267 0.13610844 -0.17229685 0.06376477 -0.18530716 -0.008604564 -0.027340258
0.13400131 -0.079243466 0.09798775 0.07647609 -0.15431213 0.0959481 -0.23644072 -0.026939446
0.056332007 -0.16652296 -0.13683978 0.033966128 -0.27689746 -0.07508302 -0.17119405 0.061276533
0.098389596 0.41819024 0.14765869 -0.024288388 -0.18684535 0.024600724 0.09157373 -0.02216293
-0.08646961 -0.022236995 0.24119686 -0.13477701 -0.17060716 0.033032354 -0.05711563 -0.019427396
-0.17660633 -0.0041795257 -0.011052505 0.07594436 -0.38582394 0.13885944 0.088695124 0.13589859
-0.03536775 0.08132905 0.13524888 -0.21468706 -0.017126597 -0.13557516 0.07934757 -0.19979258
0.061523084 -0.10573314 -0.099010654 0.030596301 -0.13308845 -0.03718824 -0.16646047 0.47835925
0.0327866 0.09484505 -0.1347655 0.14242597 0.04641935 -0.03201578 0.07336909 0.08109005
-0.14299196 0.0673273 0.08029389 -0.10782183 0.12090893 0.018768776 -0.12930876 -0.58022785
-0.11685027 -0.03780593 -0.14612998 0.13646668 -0.10021949 -0.18390243 0.13245401 0.12450522
-0.048141226 0.051495355 0.11152661 0.02420408 0.1850045 -0.04268711 0.12821314 -0.094508655
0.028705275 0.0786547 -0.12730299 -0.12976429 -0.045770664 -0.3953165 0.13024794 -0.034035057
0.19258052 0.16045135 0.16007835 -0.043601565 -0.017684722 0.02452228 0.042566188 0.12010856
-0.31091604 0.12242106 -0.16430351 0.09618627 -0.0961 0.024604365 0.098366894 0.11061538
00000000: 87ec a0be fb07 aebe 8111 1cbd 88f1 273e
00000010: e268 19be aba7 0e3d 460d 9eba 90f6 5c3c
00000020: 86ef 3e3c 85b8 163e b314 01be 4737 84bd
00000030: 4253 a83d 622d 95be 1314 d13c de61 b73d
00000040: 55e4 98be e108 4d3c 7854 103e b18a bfbd
00000050: fcb1 0c3d 643d 9cbd 64ae adbd f0c7 653d
00000060: 739a 0f3e 73a0 f73d e80a 9bbd ecac 0e3e
00000070: a36a 1ebe c8cf a8be 407d 1fbe 837d 253d
00000080: c29e c03d d0b9 323e 4d22 333d b83b 92bd
00000090: dbbc 483d fec2 8abd 8864 833d 2d50 5fbd
000000a0: fbda 8ebe 9031 b93d 0ca0 a83c cba8 7cbc
000000b0: e022 d53d 7bdb b73d b82e 083e a5a5 0bbd
000000c0: 2a38 32be 755f 0d3e f390 833d e12c c43d
000000d0: 1d61 56be 8ae9 453d 0e48 d53c b5f1 e13d
000000e0: 26ae 893c 2f01 1f3e 0b6e 04bd e8ae a3be
000000f0: f881 24be ed45 993d 4bff 913d 5e05 00be
00000100: 4241 693b 1093 a83d 66dd 8fbd 0159 26be
00000110: a19c f6bd 4762 b73d d668 85bd 0517 82be
00000120: 53df 4f3d b785 de3c 2c96 443d b4a9 91bc
00000130: 2856 70bd e70e c43d 77aa 063e 3764 0d3e
00000140: 4ebc f03d 08f3 2dbc 2473 973d 5c22 c4bd
00000150: 2e15 093e e6bc 3ebd 5935 d03d eb0f 18be
00000160: fbd4 0f3d bd6f 623e 8aba 5c3d 38e5 8bbd
00000170: d16b 093d 6e37 acbb 225f acbd 59d0 72bd
00000180: 7a1d a53d 32bb 9a3d 72d3 343c 5705 7c3d
00000190: d1e3 07be a6bd bebc 5559 203d 8fdb a73d
000001a0: 5513 2bbe bb8d 4d3c 4135 6c3d bd40 09be
000001b0: 558c 7bbd d2d7 65bd bf4b 0c3d d85c 183d
000001c0: b493 53bd 71e2 abbd 759d 5ebe f5a9 cf3d
000001d0: ee7a 88bd bc7c ce3d 20db c23d 6c82 1dbe
000001e0: ef01 8bbd 8767 bd3c f1d6 8bbe 92ab c43d
000001f0: 4bd7 8cbe 5d6b 143e fae0 acbc 0dfb c7bc
00000200: c1f9 ad3d 627f 3ebe d430 bd3c 514a ca3d
00000210: 36f8 0abe 157d 8cbe d1fe 55be 1b8b cdbd
00000220: c317 1fbd e8d3 2fbd 0360 0b3e 966e 30be
00000230: 1b97 823d 29c1 3dbe 28fa 0cbc adf8 dfbc
00000240: a437 093e 664a a2bd cdad c83d 7f9f 9c3d
00000250: 0004 1ebe 7080 c43d 841d 72be 1db0 dcbc
00000260: 64bc 663d ff84 2abe ba1f 0cbe 1120 0b3d
00000270: 81c5 8dbe 20c5 99bd 7e4d 2fbe 1afd 7a3d
00000280: 7c80 c93d 081d d63e d733 173e 71f8 c6bc
00000290: 6354 3fbe 7587 c93c 028b bb3d 088f b5bc
000002a0: fb16 b1bd 5c2a b6bc 4ffc 763e fc02 0abe
000002b0: a5b3 2ebe ef4c 073d 14f2 69bd 3426 9fbc
000002c0: 4ad8 34be 67f4 88bb 9115 35bc b788 9b3d
000002d0: b78a c5be 2b31 0e3e caa5 b53d 0029 0b3e
000002e0: c6dd 10bd d88f a63d af7e 0a3e edd6 5bbe
000002f0: 144d 8cbc 37d4 0abe fb80 a23d 6d96 4cbe
00000300: a1ff 7b3d 9e8a d8bd 19c6 cabd 18a5 fa3c
00000310: 5748 08be b252 18bd 9d74 2abe 81eb f43e
00000320: 3e4b 063d 1f3e c23d f8ff 09be 1dd8 113e
00000330: 3722 3e3d fb22 03bd 8942 963d 8a12 a63d
00000340: 7c6c 12be e5e2 893d 1f71 a43d b1d1 dcbd
00000350: 1a9f f73d fac0 993c 8469 04be d089 14bf
00000360: 324f efbd 64da 1abd 19a3 15be ecbd 0b3e
00000370: e03f cdbd eb50 3cbe 06a2 073e 98fc fe3d
00000380: bc2f 45bd cbec 523d 1068 e43d a347 c63c
00000390: d271 3d3e aed8 2ebd 4e4a 033e c18d c1bd
000003a0: 5327 eb3c b715 a13d b75b 02be eee0 04be
000003b0: 057a 3bbd ed66 cabe b75f 053e 5868 0bbd
000003c0: d433 453e 5c4d 243e 94eb 233e 8e97 32bd
000003d0: 8ddf 90bc f3e2 c83c e259 2e3d 7afb f53d
000003e0: 6330 9fbe e5b7 fa3d 2e3f 28be 4ffd c43d
000003f0: 14d0 c4bd 188f c93c 9574 c93d 518a e23d

out.bias f4 [3]
-0.015447823 0.050502326 0.1018297
00000000: de18 7dbc 87db 4e3d 178c d03d
