snake_dql_walls.pt (torch, 152152 bytes, 6 tensors)

fc1.weight f4 [256, 15]
000000 23 e3 95 bc 8f fa b2 be cb a0 b0 3e fa 0b 25 be
       -0.018296784 -0.34956786 0.34497675 -0.1611785
000010 37 e6 26 3e d8 d6 ac 3d c9 2c bf bd 55 c1 2f 3e
       0.16298757 0.08439416 -0.09334714 0.17163594
000020 80 ca fd 3d aa 55 15 3e 34 eb 11 be 64 04 66 be
       0.123921394 0.1458346 -0.14249879 -0.22462612
000030 58 99 8a be 95 d7 82 3d 8b 13 ec bd 2d 55 61 3e
       -0.27070117 0.06388775 -0.11527165 0.22005148
000040 f2 37 59 bd 44 bd b4 3e 9a f7 9e 3d a3 48 3e be
       -0.05303187 0.35300648 0.0776207 -0.18582396
000050 c2 dc 17 3e 76 3c 84 bc 9d a7 0e be 67 ec f2 3d
       0.14830306 -0.016142111 -0.13931127 0.118614964
000060 14 e5 c4 bc fa 8e 5f be e6 d5 7a bd fd f3 40 bc
       -0.024035014 -0.21831885 -0.061239146 -0.011776921
000070 34 d1 48 3e 48 5d 93 3c 5d 60 8a be a0 c8 75 3d
       0.19611055 0.017988816 -0.27026644 0.060005784
000080 b3 da 7b 3e 06 10 33 3e 5d 49 0f 3e 75 88 4e be
       0.24595146 0.17486581 0.1399283 -0.20169242
000090 89 e9 3f 3e 19 b4 3f bd 41 37 0d bd f0 89 2d 3c
       0.1874143 -0.046802614 -0.034476522 0.010591969
0000a0 b6 db 1e 3e b0 a2 d9 bd bb 3c 3f be d9 d3 0a 3c
       0.155135 -0.10626733 -0.1867551 0.00847336
0000b0 8c 11 82 3b 02 af a5 3d 74 cf 78 be 0d 73 44 3e
       0.003969377 0.08090021 -0.24297887 0.19184513
0000c0 a2 61 35 3d 90 66 36 be 60 f7 f6 bd da 87 09 3e
       0.044282563 -0.17812562 -0.12058902 0.1343073
0000d0 6c c4 bf 3d 28 0f 39 3e 6a 88 85 be b2 99 34 3e
       0.093636364 0.18072188 -0.26080638 0.17636755
0000e0 b3 cf 61 be d3 8b 85 be 54 0a 9f 3d bb 39 07 3e
       -0.22051887 -0.2608324 0.07765642 0.13205616
0000f0 c3 d1 d6 3d 1f 63 ae 3e 72 b7 62 be 98 8d 4e be
       0.104892276 0.34059998 -0.22140291 -0.20171201
000100 dc ec 38 be 84 2e df 3d 6c f4 b2 3d 3f 87 fb 3d
       -0.18059105 0.10897544 0.08738026 0.122816555
000110 e5 f0 31 be df 7a a8 3d ec 5c 22 be 7a 57 1d be
       -0.1737705 0.08226561 -0.1585576 -0.15365401
000120 a3 c6 ac bd 3d b1 13 3e 84 90 53 bc fa f1 bd be
       -0.084363244 0.1442308 -0.012912873 -0.37098676
000130 12 b2 8a 3e fe 83 21 bd 5a e8 9f be af 99 1c be
       0.27088982 -0.03943252 -0.31231958 -0.15293
000140 b7 ee 2c be 65 4e 06 3c b3 89 6d 3d b6 2b da 3d
       -0.16887937 0.008197402 0.05799265 0.106528684
000150 a9 06 af 3d 60 06 4e be 87 6f 1f 3e e5 63 8d 3e
       0.08546192 -0.2011962 0.15569888 0.27615276
000160 3e f9 47 3e 16 8a 15 3e a1 bd ba 3e 47 7e 0c 3e
       0.19528672 0.14603457 0.364728 0.13720046
000170 92 85 b2 ba 27 6f 2f be c5 2c 05 be b1 86 1a 3d
       -0.0013620129 -0.17132245 -0.1300536 0.037726108
000180 d3 c7 d4 bb 1b c6 ac 3b f9 36 64 be 09 ef c9 3c
       -0.0064935475 0.0052726394 -0.22286595 0.024650114
000190 ed 5e 56 be 32 25 5b be 81 66 86 3d ed a8 e6 bd
       -0.20934649 -0.21400908 0.0656252 -0.11262689
0001a0 e0 71 07 3e 31 74 54 3c c3 08 58 be e1 02 96 3d
       0.13227034 0.012967155 -0.21097092 0.07324768
0001b0 b6 c0 68 be e7 9c dd 3c 3e 7d 12 be aa f4 a9 3d
       -0.22729763 0.027052356 -0.14305589 0.08298619
0001c0 26 36 89 bd e8 4b a4 bd d4 b4 10 3e 95 ad aa bd
       -0.06699781 -0.080222905 0.1413148 -0.083338894
0001d0 a0 b9 1d be ac 37 83 3d 46 40 90 3e 74 98 6b be
       -0.15402842 0.06407103 0.28174037 -0.23007375
0001e0 4a cd d1 3d 90 f1 1f 3d a6 0c d9 bd 77 cb ad be
       0.10244234 0.03904873 -0.105981156 -0.33944294
0001f0 ef 58 62 3e 36 1d dd bd 43 54 19 3e 11 f4 9f bd
       0.22104238 -0.10796587 0.1497355 -0.07810224
000200 40 75 d3 3b 4c ca 32 3e 5d 79 82 bd e4 a4 55 3e
       0.0064531863 0.17459983 -0.063708045 0.20863682
000210 07 4f 89 3e 38 fc 17 be 0b d7 67 bd 8f 9b 16 3d
       0.26818106 -0.14842308 -0.056601565 0.036769446
000220 bd e8 70 3e ce 58 9a be 62 57 d3 3c 61 ec ca 3d
       0.23526283 -0.30145878 0.025798503 0.09908367
000230 07 fc 7d 3e b4 f3 7e 3e ad 34 01 be cd c5 5c 3d
       0.24803172 0.24897653 -0.1261775 0.053899575
000240 8b 1a 1a be 90 d3 d3 3d 34 24 aa bd ed 5c c9 bd
       -0.15049188 0.10343087 -0.083076864 -0.09832177
000250 dc c4 c9 bc de d1 9a bd b1 9e 4e 3e 02 c6 b2 3e
       -0.024630003 -0.0755956 0.20177723 0.34916693
000260 71 ef a6 bb f0 c4 42 3d 5a 54 86 3e 7f 42 46 be
       -0.0050944616 0.047551095 0.2623623 -0.19361304
000270 fc 09 7d 3e 7b d5 6f be e4 ca f9 3d 12 45 c6 bc
       0.2471084 -0.2342128 0.121969014 -0.024202857
000280 6f 53 0f be 26 cf 65 bc 05 d1 32 3e cb 63 8c be
       -0.13996671 -0.014026439 0.17462547 -0.27419886
000290 da c5 5e bd 9b e7 76 3e 69 a0 cd 3c c6 e6 9f ba
       -0.054387905 0.24111788 0.025100904 -0.0012199513
0002a0 e1 db 08 be bd b6 a5 bd 3a 26 5d 3c 57 21 bb 3c
       -0.13365127 -0.08091495 0.013497883 0.022843046
0002b0 66 2f 82 be 0e 37 52 3d 1f 25 09 be 9f e6 5b 3e
       -0.25426787 0.051322035 -0.13393067 0.21474694
0002c0 91 79 28 3e 6d 32 e1 bd 62 75 7d 3d dd 71 6d be
       0.16452624 -0.10995946 0.061879523 -0.23187967
0002d0 1a c4 89 be 15 29 3d 3e 28 c4 5a 3e b5 3d f3 bd
       -0.26907426 0.18472703 0.2136389 -0.11877004
0002e0 79 15 99 3d d4 8e 21 bd 8b 4c 45 be 29 b1 e6 3d
       0.07474799 -0.039442852 -0.1926748 0.11264259
0002f0 5f 3d 43 3e 25 4c 52 3c 86 1c 45 3e 3b 72 0b be
       0.1906638 0.012835537 0.19249162 -0.13617794
000300 7b f7 a5 bd a4 5f a8 bc b0 11 fb bd c6 11 65 3e
       -0.08103844 -0.020553418 -0.12259233 0.22370061
000310 3f 8f 13 3e b9 68 4f 3e de 22 7d 3c 7d 52 e1 bd
       0.14410113 0.20254792 0.0154502075 -0.110020615
000320 35 47 5e bc 95 b2 6d bb ef 7e 5c 3e 79 b7 9e 3d
       -0.013566782 -0.0036269773 0.21532796 0.077498384
000330 45 f9 2c 3e 57 eb 3b be 0e b1 da 3d ea 63 22 3e
       0.16891964 -0.18351494 0.10678302 0.15858427
000340 3d a9 40 be 29 8d 4e 3d af 4a 16 3e 6a 2b 80 3e
       -0.1881456 0.05042759 0.14676927 0.25033122
000350 3c 62 18 3e 97 d7 b1 bd cb 8a 92 be db c6 99 be
       0.14881223 -0.086836986 -0.28621516 -0.30034527
000360 6d 8e 0a 3e 85 6b 34 3e 16 02 30 be 57 2b 77 be
       0.13530894 0.1761914 -0.17188296 -0.24137627
000370 ed de 84 3e 53 75 86 be 38 00 b9 be af 4c e1 be
       0.2595133 -0.26261386 -0.3613298 -0.44003817
000380 e0 fa 91 3e 95 20 3d 3e 58 5b 49 3d 7d 36 93 3d
       0.28511715 0.1846946 0.049159378 0.07188127
000390 c5 20 df 3c b9 49 11 be cc cf 1b be d6 74 83 3e
       0.027237305 -0.14188279 -0.15215987 0.25675076
0003a0 ef 96 de bd 0f 27 f4 3d dd 65 d2 bd 3a 94 56 3e
       -0.10868632 0.11921512 -0.10273335 0.20954981
0003b0 63 ea cb bd 34 e6 ff 3d f6 5d 8f 3e 7c 0f 0d be
       -0.09956815 0.1249508 0.28001374 -0.13775438
0003c0 ee 5f 6e be a2 6c 2b be a1 92 22 3e 93 4b e2 bd
       -0.23278782 -0.16740659 0.15876247 -0.11049571
0003d0 43 f1 f7 bd e4 21 74 3e ad 6b 31 bd 71 06 09 3e
       -0.12106564 0.23841053 -0.04331558 0.13381363
0003e0 4a 12 d5 bd c5 69 77 3d 95 fe 04 bd 52 e9 c5 3d
       -0.10403879 0.060403604 -0.03246935 0.09663643
0003f0 f2 24 0d 3e 69 8e 6f 3e 25 13 f2 3d 78 ab 1f 3c
       0.13783625 0.23394169 0.11820058 0.009745471

fc1.bias f4 [256]
000000 13 1e 3b 3e 06 85 3f 3e e8 b0 5b 3e f1 06 0c 3e
       0.18273191 0.18703088 0.21454203 0.13674523
000010 80 b1 a2 3d 9e eb 6e 3e ba f4 1a 3e fc 31 0b 3e
       0.07944012 0.23332068 0.15132418 0.13593286
000020 2a 8e 08 be 78 47 06 3d 13 62 aa bb 88 57 e2 3d
       -0.13335481 0.032783 -0.0051996796 0.110518515
000030 0f 97 05 3e fe e7 66 be 57 d3 bc bd 81 d1 da bd
       0.13045906 -0.22549435 -0.092199974 -0.10684491
000040 e8 dc 2d bd e6 63 ee 3c 3b 41 8c 3d 69 5d 04 3e
       -0.042447 0.02910037 0.06848379 0.12926258
000050 d7 6d e1 3d 27 e1 a8 3d cc 45 a5 bd cd 11 15 3e
       0.110072784 0.082460694 -0.08069953 0.14557572
000060 c3 94 d4 3d 1c 77 24 bd 27 f5 03 3e fd 19 01 3d
       0.103799365 -0.040152654 0.12886487 0.031518925
000070 22 73 28 3e 2d aa ec 3c d9 e3 80 be 63 b0 08 3e
       0.1645017 0.02888974 -0.25173834 0.13348536
000080 86 7b 15 be 81 7f 20 3e 17 fb 9a bd fe c0 96 be
       -0.14597902 0.15673639 -0.07567423 -0.29444116
000090 7b b3 f3 3b 50 fd 28 3e 7c f8 e4 bd b6 1b 4f be
       0.007437167 0.16502881 -0.11180207 -0.20225415
0000a0 54 6b cb bd 01 d3 1c bc 93 d9 de bd 40 38 68 3c
       -0.099325806 -0.009571792 -0.10881343 0.014173567
0000b0 33 30 ed 3d b8 28 9a bd a3 2e d0 3d cc 86 8e bd
       0.11581459 -0.07527298 0.10165145 -0.06959304
0000c0 bc 2c d5 bc 5f 1a 51 be 69 a1 30 be e8 c2 85 bd
       -0.026022308 -0.20420216 -0.17249073 -0.06531316
0000d0 c3 36 c7 3d 37 55 4e bd 95 60 04 3c e2 6f c7 3d
       0.09727242 -0.050374236 0.008079668 0.09738137
0000e0 44 51 3d be 8f bf a1 bd 83 1d 26 3e 99 54 ec bd
       -0.18488032 -0.07897865 0.16222195 -0.11539573
0000f0 cd 6a 1f be 3b 34 4e be 3b 9d 1b be a5 98 32 be
       -0.15568085 -0.20137112 -0.15196697 -0.17441042
000100 66 3e 5d be 7f 85 a6 3d 6b a2 d3 bd f0 66 be 3d
       -0.21605834 0.08130931 -0.10333713 0.092969775
000110 05 ae 35 3d 6a d2 91 bd 90 44 ef bd 76 62 47 bd
       0.04435541 -0.071202114 -0.11682999 -0.048677884
000120 8f 7f 90 bd 4e 45 5a be a1 a0 3a be 2a de 1a be
       -0.0705558 -0.213155 -0.18225338 -0.15123811
000130 9c d4 6c 3a 03 47 55 3e 0d c4 c0 3c 26 93 c8 3c
       0.0009034367 0.2082787 0.023530984 0.024484228
000140 f7 e0 8e bd 6a d7 35 3e cf 6f 8e 3d 7e a3 15 be
       -0.069765024 0.17757955 0.069549195 -0.14613149
000150 33 69 30 be df 08 0d 3e 18 d4 1f be ad 76 08 3e
       -0.1722763 0.13772915 -0.15608251 0.13326521
000160 97 91 75 3e be 18 b2 bd c1 bf 2b 3e ee f0 ce 3d
       0.2398132 -0.086961254 0.16772367 0.101045474
000170 92 b8 6b 3e 5e d5 16 3e 04 ea 0a be 59 91 c4 3d
       0.23019627 0.1472983 -0.13565832 0.09598035
000180 b8 85 8d be 04 b8 16 3b 0b 31 70 be 4f 47 77 be
       -0.27641082 0.0022997865 -0.23456208 -0.24148296
000190 55 b4 25 bd 3f 01 46 3e ac 60 04 be 0d 81 48 3e
       -0.04045518 0.19336413 -0.12927502 0.19580479
0001a0 2a ec dd 3c 77 4a 42 be da 24 0f 3e 03 db 10 3e
       0.02709015 -0.18973719 0.13978902 0.14146046
0001b0 47 b8 a8 3d ad f2 7d 3d 9f 17 5f 3e 93 7f 21 3e
       0.08238273 0.06199901 0.21786354 0.15771322
0001c0 9f 0e 55 3e 07 a1 f2 bd a9 b0 ac bd fe c4 72 3d
       0.20806359 -0.1184712 -0.08432133 0.059269898
0001d0 13 dc 1a 3e 80 93 4b be 2e ba 83 be e9 66 7b 3e
       0.15123014 -0.19880486 -0.2572798 0.24550976
0001e0 5d d9 d5 bd 37 66 32 be b0 9b de 3d 67 17 8e be
       -0.104418494 -0.17421804 0.10869539 -0.2775223
0001f0 6e 7b 3b bd cb 86 21 3d 6b f6 38 be 38 f3 35 3e
       -0.04577201 0.03943519 -0.18062751 0.17768562
000200 20 93 81 be 9b bc 42 be 18 19 44 be a5 c1 81 3c
       -0.2530756 -0.1901726 -0.19150198 0.015839407
000210 36 2f fd bd 1d be 89 3d ed d8 d4 3c d7 43 68 be
       -0.123625204 0.06725714 0.025982345 -0.22682129
000220 76 1b b4 bd 50 e4 9e be 1b d9 08 3e da af 1c bc
       -0.087943 -0.31033564 0.13364069 -0.009563411
000230 fd 30 51 be ba b3 90 bd 1e 32 19 3e 8a f8 53 3e
       -0.20428844 -0.0706553 0.14960524 0.20700279
000240 cd 50 80 be c4 4c 33 3e 6f b8 36 bd e9 c8 21 3e
       -0.25061646 0.17509753 -0.044609483 0.15799297
000250 89 b4 67 3e da 6f 47 be 31 c9 1d 3e 29 3f 3d be
       0.22627462 -0.19476262 0.1540878 -0.18481125
000260 3d 0d 03 3e 22 3b 80 bd 37 b2 b6 3c 5e 7c a5 bc
       0.12798019 -0.06261279 0.022301776 -0.020200904
000270 e8 6d e9 3d 48 03 3d 3e 41 21 55 3e 37 76 51 3e
       0.11397916 0.18458283 0.20813467 0.20455252
000280 fd e0 76 be 2a 67 43 3b 06 bb d9 bd ef 7b e3 bd
       -0.24109264 0.002981613 -0.10631375 -0.11107623
000290 72 4e 95 3d db 13 1a 3e 5b 2f 0a bd f0 be 3d bd
       0.07290353 0.15046637 -0.033736568 -0.04632467
0002a0 98 49 e1 3d fa bc 9e bd 42 dc 1d 3e 29 1e 0e bd
       0.11000365 -0.07750888 0.15416053 -0.03469673
0002b0 99 ad d9 bc d5 f9 8c be 6c 34 47 3e ce a4 d9 bc
       -0.026572036 -0.27534357 0.19453591 -0.026567843
0002c0 65 c8 e5 3d 5c 7a 81 bd b9 c1 4b 3d 27 71 a7 3b
       0.11219863 -0.06322166 0.049745295 0.0051099244
0002d0 53 4d 72 be 20 a7 a3 bb b0 1d 45 3e 97 c5 13 3d
       -0.2366231 -0.004994288 0.19249606 0.03607711
0002e0 14 12 1e be 86 46 59 3e ee 64 18 bd f9 0b 1a be
       -0.15436584 0.21218309 -0.03720563 -0.1504363
0002f0 2c 0b 32 3d 4e ce 2a 3d 7d 2a 0e 3e e8 7d fe bd
       0.043467686 0.041700654 0.13883395 -0.124263585
000300 03 23 f0 bd c8 0a 3e 3e 77 b1 2a 3e fd cf 99 bd
       -0.11725428 0.185588 0.1666926 -0.07510374
000310 df a6 b8 3c f6 09 dc 3d 0e b5 36 bd 59 38 82 3d
       0.022540508 0.107440874 -0.04460626 0.06358404
000320 2b d9 e9 bd 4d 14 13 be 3b 91 da bd 14 17 8b bd
       -0.11418375 -0.14363213 -0.10672232 -0.06791511
000330 bb 07 83 be 0e 55 54 be 61 86 03 3e e1 fb 51 bc
       -0.25591835 -0.20735571 0.1284423 -0.0128164
000340 0d f2 0b 3e 54 e8 6f be fd ad a7 3c d2 a5 89 3a
       0.13666554 -0.2342847 0.020468706 0.0010501689
000350 42 c4 f5 3d de 99 2e be 40 c0 06 3d 04 86 e6 3c
       0.12000324 -0.17050883 0.032898188 0.028140076
000360 1a 17 e6 39 ef c2 85 bd e5 37 3a bd 64 5c 28 3e
       0.0004388623 -0.06531321 -0.04546346 0.16441494
000370 ca 50 ed bd 0a c7 1b be 8a 5a 8f bd 85 d0 ad be
       -0.11587675 -0.15212646 -0.06999691 -0.3394815
000380 5b c7 9b 3d d6 52 48 bb 21 ae a7 ba 24 bd cb bc
       0.076063834 -0.0030566952 -0.0012792983 -0.024870463
000390 41 2f d0 3c a9 b9 d9 bd bd 81 7a be 5f d3 13 3e
       0.025413157 -0.10631115 -0.24463554 0.144361
0003a0 4f 55 48 be f2 23 48 3c 1b 71 70 be d9 a9 7b 3d
       -0.19563793 0.012215601 -0.23480646 0.061441276
0003b0 e5 25 a4 bd 42 6c 97 3d 2d 6a 9a 3d 6b d6 b9 bd
       -0.0801504 0.073936954 0.07539783 -0.090741
0003c0 ef 6a 14 3d 4c 3b 85 3d 23 cb f7 3c 40 c9 25 3e
       0.036234792 0.065054506 0.03024823 0.16190052
0003d0 97 03 9e bd c7 3b 37 be cf 36 ea bd 66 3e e5 3b
       -0.077155285 -0.17893897 -0.11436235 0.006995964
0003e0 06 36 4e 3e 1a 96 9d bc 83 21 d4 bd cf 40 44 be
       0.20137796 -0.019236613 -0.10357954 -0.19165348
0003f0 f2 a5 93 bd a0 14 cd bd c2 5d 29 be 9e a0 e1 3d
       -0.07209386 -0.100136995 -0.16539672 0.110169634

fc2.weight f4 [128, 256]
000000 a5 22 ef bd 42 87 18 3d bf 3d 9a bb 56 54 ba bd
       -0.1167653 0.037238367 -0.0047070677 -0.09098117
000010 55 5d d8 ba d8 3b 85 3d 70 7d e1 bb 6f c4 ab bc
       -0.0016507307 0.06505555 -0.0068814084 -0.02096769
000020 0a a4 41 bc b6 1e 58 3c 10 30 df 3c 31 b5 4f 3d
       -0.011818895 0.013190916 0.027244598 0.050709907
000030 85 70 5c 3d 89 e7 11 3e 7b c4 ad bc 0d 48 29 bd
       0.053818244 0.1424848 -0.021211853 -0.04132848
000040 48 07 83 3d 17 07 78 3a 2e bc 80 3d 4b 42 51 3d
       0.06397873 0.00094615057 0.062858924 0.051088613
000050 1d 6e 84 3d 18 1e 75 3d 6e c6 c4 3b f6 fd f1 bc
       0.06466315 0.059843153 0.0060051 -0.029540043
000060 20 e5 5e 3d fc d1 5e 3d 58 8f 1e bb 86 dd ea bc
       0.05441773 0.054399475 -0.0024194326 -0.028670084
000070 e1 e5 38 bd d1 28 21 bd 9e 6a 83 3d de 56 22 bc
       -0.045141105 -0.039345566 0.0641682 -0.009908406
000080 cc 63 d1 bd 65 9f b2 bc 0a b2 3f 3c 18 2c a2 3d
       -0.10224113 -0.02180452 0.011700163 0.079185665
000090 4a b4 d8 3a 55 b8 43 bd 93 6b e0 bc a7 11 93 3d
       0.0016533223 -0.047783215 -0.027395045 0.07181101
0000a0 ad 75 f8 3d c7 62 06 3d 5e 49 85 bc 3c f9 27 3b
       0.1213182 0.032809045 -0.016270336 0.0025630733
0000b0 08 d2 e5 bd 7a 92 e5 3a 76 c3 8c bd ed 5b 87 bd
       -0.11221701 0.0017514967 -0.06873219 -0.0660933
0000c0 91 fc b1 3c 8f f3 13 3e 0a b5 ac 3c 8d bf ca 3c
       0.021726878 0.14448379 0.02108242 0.024749542
0000d0 10 e0 1a bd 77 c8 e2 3d 2f 19 9d bc eb 38 1b bd
       -0.03781134 0.11073392 -0.019177048 -0.037896078
0000e0 cc 94 08 3d 9a 90 fe bc ca 86 07 bd 3b cb ea 3d
       0.03334503 -0.03107481 -0.03308753 0.114645444
0000f0 01 33 3f bc 6c 1e ce 3d 8e ec 90 3c c2 89 87 bd
       -0.011669875 0.10064396 0.017690923 -0.06618072
000100 ec 55 c5 3c 33 7f bf 3c d9 c6 2f 3e 4c 05 95 3d
       0.024088822 0.023376083 0.17165698 0.07276401
000110 b8 60 be 3c 1e 68 a3 3b 77 20 80 bd b5 e7 58 3e
       0.023239478 0.004986777 -0.06256192 0.21182139
000120 52 94 c4 3d 55 84 8d bc 01 04 9c 3d 87 c0 60 3d
       0.09598602 -0.017275015 0.07617951 0.05487111
000130 d4 92 80 be ae 03 08 bc ac a0 5d 3d 9f eb 43 3d
       -0.2511202 -0.008301659 0.054108307 0.047832128
000140 5e ca 2b bd 47 8f 42 bd 21 74 c6 3d 3b 04 fb bd
       -0.04194104 -0.04749992 0.096901186 -0.12256666
000150 a2 27 43 bc d9 70 66 3d 46 a4 aa bc 52 72 0b bd
       -0.011911305 0.056259964 -0.020830285 -0.03404457
000160 bf 3b 13 bd ab f8 b2 bb 5d a2 ac 3c d9 70 21 bc
       -0.03594565 -0.0054617724 0.021073515 -0.009853565
000170 b4 dd 20 bd 25 24 81 bc a2 48 a3 bd a6 ab 8b bd
       -0.039273933 -0.015764305 -0.07972838 -0.06819849
000180 3e 4c 87 bd 2b f3 0e 3d 22 df 46 3d 28 d2 3f 3d
       -0.06606339 0.03489987 0.04855264 0.04683128
000190 45 20 b7 3c 69 f5 e5 3c 55 d5 49 3d c9 97 c8 3b
       0.022354254 0.028071122 0.049275715 0.00612161
0001a0 3e e1 6c bc 62 e3 78 bc c0 7b 1a 3d 30 20 03 3d
       -0.014457999 -0.015190931 0.037715673 0.03201312
0001b0 55 71 f8 bc ff 1d 41 bd ff 5a 77 3d 91 a4 93 3c
       -0.030327478 -0.047147747 0.060389515 0.018022807
0001c0 ff 69 3d 3d ad 3b da 3d 19 e4 0b 3c 2c a3 1e 3b
       0.046243664 0.106559135 0.008538269 0.0024206145
0001d0 64 6c f5 bc 10 89 cd 3d 30 22 4d bc 08 55 0c bc
       -0.029958911 0.10035908 -0.012520358 -0.008565195
0001e0 54 b5 f2 bc 75 38 b0 3d 34 d1 b5 bc 98 a2 0c 3e
       -0.02962748 0.08604518 -0.022194482 0.137339
0001f0 fd 16 6a 3d 9f dd 2a 3d c8 c9 da 3b c3 6b 29 3d
       0.05715083 0.04171526 0.006676886 0.041362535
000200 fc 74 30 bd df 49 cf bd 96 4f 21 3e ed 7d 5e 3d
       -0.043080315 -0.10121512 0.15753016 0.05431931
000210 24 1f 8f 3d 40 4f 10 bd fc db 24 3c 6d 6e 44 bd
       0.069883615 -0.03523183 0.010062214 -0.047956873
000220 ba 7f 3a 3c 39 87 a8 3d 9d 94 09 3d 04 5c e7 3c
       0.011382991 0.08228917 0.033588994 0.028242119
000230 97 de d9 3d c2 e3 ad 3c c5 34 f0 bc f4 b4 9e bc
       0.10638159 0.021226767 -0.029322037 -0.019373395
000240 60 57 52 bd f7 ae 27 3d 44 bb 15 3c 24 ac d1 3d
       -0.05135286 0.040938344 0.009138886 0.10237911
000250 e5 e0 52 bd a5 b9 12 3d 39 59 22 3d 46 95 98 3d
       -0.051484007 0.035821576 0.03963587 0.07450347
000260 af 9c 2f bd 81 cb 31 bc c0 b3 b4 3d 76 40 f9 3d
       -0.042874034 -0.010851742 0.08823347 0.12170498
000270 f4 5a 11 3d 4a 61 69 3d 39 29 5e bd c3 3c 38 3c
       0.03548713 0.056977548 -0.05423853 0.0112449555
000280 11 8d 06 3d 54 9b d4 bc 01 5e cc 3d 70 d5 5d bd
       0.032849375 -0.025952972 0.09978867 -0.054158628
000290 06 eb 72 bd f3 93 9f 3d 48 3f 89 bb 9d 43 0e bd
       -0.059306167 0.07791891 -0.004188452 -0.03473245
0002a0 15 5d 40 3c 82 c2 5c bc e0 7a e9 bd f8 01 0c 3e
       0.0117409425 -0.013474109 -0.1140039 0.13672626
0002b0 ce 7b e1 3c 77 3b b1 3b 1c b2 50 3d cb 1c ac 3d
       0.027524855 0.0054087 0.05095111 0.08403929
0002c0 b0 10 4a bd fe 80 e8 3d 7e b1 19 bc fb 13 33 3d
       -0.04933232 0.11352728 -0.009380696 0.043720227
0002d0 43 c3 19 3e 27 bc 56 3d e0 eb 6d bd ad 1a 0d 3c
       0.15015893 0.05242553 -0.058086276 0.008612317
0002e0 8a 61 63 bd 1a 67 2e 3d 60 02 22 3c cb 0a 57 bd
       -0.055512942 0.042578794 0.009888262 -0.052500527
0002f0 6a e1 1a bd 44 3d d9 bc 9a 16 52 3d 85 a8 0a 3d
       -0.037812628 -0.026518472 0.051291086 0.03385212
000300 e5 9b 25 3c fa 63 a8 3d 9b 8d 7c 3c 38 16 d8 3d
       0.010107969 0.08222194 0.015414621 0.10551113
000310 37 8f 6c 3d bb 50 a5 bc 0f 5c 4a bc 9c 29 25 bd
       0.057753768 -0.020180097 -0.01235105 -0.040322885
000320 d6 68 4b 3d 76 7b 3f 3d 2a 44 53 bd fe 02 54 3d
       0.049660526 0.0467486 -0.05157868 0.051760666
000330 c8 4a 16 bd 59 eb f6 bd e3 4b 5b 3d 2d bd c6 bd
       -0.03669241 -0.12056608 0.053539168 -0.09704051
000340 96 24 d5 3c 50 a5 86 bb b9 c5 70 3d b5 9a 24 be
       0.026018422 -0.0041090623 0.058782313 -0.16074641
000350 a5 49 74 bc 21 fc 0b be 02 07 7f bc b2 d8 45 bb
       -0.014910136 -0.13670398 -0.015565636 -0.0030188975
000360 e6 de 93 bd fc cd c6 bc 2e 63 23 bc 76 a7 63 3c
       -0.07220249 -0.024268143 -0.009972377 0.013894906
000370 59 9c 23 3e 6f 1c b5 3d ab 36 22 bd 53 61 d0 3d
       0.1597761 0.08843314 -0.039602917 0.10174813
000380 05 49 17 bd e8 6a 2e bc 61 03 d8 3c 79 fe e9 3c
       -0.03693487 -0.010645606 0.026368799 0.028563725
000390 5e 6e ce 3d b1 de ce bc 7c 90 8a bc af e1 28 3c
       0.100796446 -0.025252672 -0.016914599 0.010307713
0003a0 fa c2 df 3d 7e 0b 08 3e 9a 3c a1 3b d2 41 84 3d
       0.10925861 0.13285634 0.0049205543 0.06457867
0003b0 d0 c0 0a bc dd c9 26 bc 9e fd 34 3d 10 ac 49 be
       -0.008468822 -0.010179964 0.04418718 -0.19694543
0003c0 81 85 a1 bd 1c 1b 0c 3d df 2a 5f 3c c3 3c 54 bd
       -0.07886792 0.03420554 0.013621061 -0.05181576
0003d0 48 9f 48 3d 36 6e df 3d a0 7c f0 bc e4 79 68 3d
       0.048980027 0.10909693 -0.0293563 0.05675687
0003e0 93 88 20 bd 65 10 86 3d f3 59 40 bd 38 e4 da 3c
       -0.039192747 0.06546096 -0.046960782 0.026720151
0003f0 88 64 c2 bc 55 60 91 3d ce bc bd bc 8e e3 36 bd
       -0.023729578 0.07098452 -0.023161318 -0.044650607

fc2.bias f4 [128]
000000 ab d0 72 3d 5b 86 b3 3c e2 3a 12 bd f2 28 fb 3c
       0.059281033 0.021914652 -0.035700686 0.030659173
000010 05 3e 87 bc 14 39 06 bd 3f 09 57 bc b8 54 95 3c
       -0.016509065 -0.032769278 -0.013124763 0.018228874
000020 82 aa e5 3c 0d 99 f4 bc 2c 0d ff bc ac fa ad 3c
       0.028035406 -0.029858137 -0.03113421 0.021237694
000030 38 6d 6c 3c 1b 81 3f bc 19 af 02 bd 91 70 39 bd
       0.014430337 -0.011688496 -0.031905267 -0.045273367
000040 8b e3 2a bd db 74 48 3d e1 c9 90 bb 00 ec 20 bb
       -0.041720908 0.048939567 -0.004418597 -0.002455473
000050 ad 73 b5 3c 58 80 31 3d 36 cf bb ba 20 7b 1a 3b
       0.022149885 0.04333529 -0.0014328721 0.0023571923
000060 d7 bb 5d 3d 54 f9 98 bc 02 1f 8c 3c 7a c2 40 bd
       0.054134216 -0.018673576 0.01710463 -0.047060467
000070 18 69 24 3d 72 19 4c 3d 98 2f 2d 3d a2 23 08 3d
       0.040139288 0.049828954 0.042281717 0.033237107
000080 1e 64 76 bc 48 6c f8 bb 98 4a 85 b9 94 51 14 bd
       -0.015038518 -0.0075812675 -0.00025423313 -0.03621061
000090 b0 ee 3c bd 1d 7c 29 bd 29 3c 01 3d 6a 29 81 3c
       -0.046126068 -0.04137813 0.031551514 0.015766818
0000a0 42 42 e0 ba 8b 64 48 bb 50 bf 26 3d 9f 3e 25 3d
       -0.001710959 -0.0030577506 0.040709794 0.040342923
0000b0 a3 e3 ed bc 85 5e 07 bd 4c e1 f6 ba c3 fb 40 bd
       -0.02903921 -0.033049125 -0.0018835454 -0.0471151
0000c0 3d 7b 3f bd 53 85 8c bd 61 a7 39 3a 09 af 42 bd
       -0.04674839 -0.06861367 0.00070821313 -0.047530208
0000d0 83 c9 6f bb 85 bc 61 3d 30 0a 6a 3d eb 93 44 3c
       -0.0036588616 0.055111427 0.05713862 0.011998157
0000e0 0e 86 89 bd 1b 23 9f bc 95 b2 48 bc c5 86 37 3c
       -0.06715022 -0.01942592 -0.0122496085 0.011201565
0000f0 8a ae a3 ba 5c de 0a bd fa 6b 25 3d c1 95 4b 3d
       -0.001248793 -0.033903465 0.040386178 0.049703363
000100 97 bc 1c 3d ea 00 c8 3c da f9 0d 3d e5 b0 2c 3c
       0.03826579 0.024414498 0.034662105 0.010540222
000110 e8 73 28 3d 74 05 70 bd 6e 19 eb bc 61 74 d9 bc
       0.04112616 -0.05859895 -0.02869865 -0.026544752
000120 ba e0 91 bd b3 42 3b 3d 16 94 63 bc 8b 78 1d bd
       -0.07122941 0.045717906 -0.013890287 -0.038445037
000130 f0 52 26 bd 5c 39 5a bd 4e ff 42 3d ae 55 4c 3d
       -0.04060644 -0.05327736 0.04760676 0.049886398
000140 cb c1 33 3d c2 d5 c4 3c c0 5a fb 3b a5 3d ff bc
       0.043885987 0.024027709 0.0076707304 -0.031157324
000150 de a1 26 bd da 61 87 bd 86 c5 62 3d 39 89 88 3c
       -0.040681712 -0.066104606 0.055364154 0.016666995
000160 07 fc c2 3c b9 ca cf ba b1 15 bb 3c 9c c0 31 bd
       0.023801817 -0.0015853263 0.022837492 -0.043396577
000170 a4 9c 04 bd 49 05 96 bd 5a 94 33 3d a8 0d 4b bd
       -0.032375947 -0.07325227 0.04384265 -0.04957357
000180 bb 80 3d bc 4e f2 93 bc c2 69 f9 bc f5 fb 00 3d
       -0.011566336 -0.018059876 -0.030445937 0.031490285
000190 d7 e9 0d 3d 09 46 7a bd f5 0b ea bc 90 ac 4f bd
       0.034646835 -0.061101947 -0.028570155 -0.050701678
0001a0 97 f0 ad bb 0f ca e3 3c 24 d8 88 bd 27 8f 2a bc
       -0.0053082216 0.02780631 -0.066818506 -0.010410107
0001b0 44 3e 9d 3c 07 b9 3c 3d ed 98 f5 3c 70 69 38 bd
       0.01919473 0.046074893 0.029980147 -0.045022428
0001c0 68 fb 67 bd 0e 38 1d bd 41 ac 1d be 2c c5 25 bd
       -0.056636244 -0.038383536 -0.15397741 -0.04047124
0001d0 98 be 5a 3d 95 0c 59 bd d2 02 7f bd b1 2f c8 bc
       0.05340442 -0.052990515 -0.06225855 -0.024436804
0001e0 b2 ef a5 bc 3d 44 00 3c e1 b8 f2 3c a1 85 d9 3c
       -0.020255897 0.007828769 0.029629173 0.026552977
0001f0 47 13 29 bc e1 a9 60 bd 25 71 4a bd 63 d6 97 bd
       -0.0103195375 -0.05484951 -0.04942431 -0.07413938

out.weight f4 [3, 128]
000000 c5 ef e5 3b 7f 0b 5b bc 1a 23 65 bd 1b 19 7e bd
       0.007017108 -0.01336944 -0.05594168 -0.06203566
000010 25 d6 bb bd 41 5f 30 bd 34 88 9e bd e5 c4 ba 3d
       -0.09171704 -0.04305959 -0.077408224 0.09119586
000020 5e f2 f1 3c bc 4a 89 be ba 54 a0 be 53 ba c7 bd
       0.029534515 -0.2681483 -0.3131464 -0.097523354
000030 65 8e a8 bd e4 1d 53 3d 66 7e 3a bd 97 cc 5b 3d
       -0.082302846 0.051542178 -0.0455307 0.05366191
000040 38 30 bc bd d4 18 9c bc 43 a8 48 bc e3 c5 06 3c
       -0.091888845 -0.019054808 -0.012247148 0.008225891
000050 6c 55 ac 3d a4 cf 54 3d 32 cf 5b bd 59 b3 df bd
       0.084147304 0.051955834 -0.053664394 -0.1092288
000060 43 28 87 3d 98 08 31 bd f0 37 0b 3b de 26 84 3d
       0.06599476 -0.043221086 0.0021243058 0.06452726
000070 96 e4 35 3c ac 8a 87 3d 26 5f 69 bd 0b b1 19 bd
       0.011101862 0.066182464 -0.056975506 -0.037522357
000080 2a f8 95 bd 40 46 42 3d 89 68 9f 3d 83 1a a8 3d
       -0.07322724 0.047430277 0.077836104 0.08208182
000090 b6 bf 0b be 10 f5 cc 3d d5 e8 c7 bb 55 a6 c4 3a
       -0.1364735 0.100076795 -0.006100754 0.0015003184
0000a0 75 a2 99 bd c9 b9 bf 3b 12 78 3f bd d9 49 8e bd
       -0.07501689 0.0058510047 -0.046745367 -0.06947679
0000b0 1c 49 7a 3d 56 07 23 bc 4c 57 0c be 9a c7 46 3d
       0.06110488 -0.0099504795 -0.13705176 0.0485302
0000c0 d1 2e 87 3d 79 e2 a6 bd 29 d4 58 3d ae c6 99 bd
       0.066007264 -0.08148665 0.052936707 -0.07508598
0000d0 3c 79 b8 bd 69 a8 82 bd 2c a2 b5 3d 3d b6 97 3d
       -0.090074986 -0.06379778 0.088688225 0.07407806
0000e0 1f cc 04 bd c0 17 61 bd 52 b3 94 3d f4 42 b1 bc
       -0.032421228 -0.05495429 0.07260765 -0.021638371
0000f0 26 f8 8f 3d e1 f8 e4 3b f4 34 8c bd c2 6a 0b 3e
       0.070297524 0.0069876765 -0.068460375 0.13614944
000100 93 9c 7d 3d 79 0d 1c be 08 b2 40 bd 53 c5 3d bc
       0.0619169 -0.15239514 -0.047044784 -0.01158269
000110 1e 2b 9c 3d c2 9d 77 be eb ce 20 be 2d 0b 39 be
       0.076254115 -0.24181274 -0.15703933 -0.1807067
000120 1b d4 bd bd 24 5d 04 bd 0e b4 04 be e2 14 6b 3d
       -0.092689715 -0.03231539 -0.1295931 0.057392962
000130 40 ba d6 3c e3 c8 00 bc ed 5e 02 3e 47 22 40 bd
       0.026211858 -0.007860395 0.12731524 -0.04690769
000140 3e 6d 2c 3c 5b 0e 21 bd 87 20 75 3d 70 aa 4f bd
       0.010524092 -0.03932033 0.059845474 -0.05069965
000150 1c c6 05 3d 32 d8 00 bd 25 aa 3b bd 1b d9 06 3d
       0.032659635 -0.03145618 -0.04581656 0.03292189
000160 32 47 6c 3d 32 6d f1 bd 46 49 60 3b d9 3d c3 bd
       0.057685085 -0.117884055 0.0034223362 -0.09533281
000170 c5 77 2a bd cf 35 af be 58 1a 59 be a1 14 c9 3c
       -0.041618127 -0.3422074 -0.21201456 0.02454597
000180 ea 15 66 3c 00 47 18 bd 21 81 35 3d ed 73 79 3c
       0.014043311 -0.037177086 0.0443126 0.015225393
000190 b0 ac fa 3c 44 b5 1d bd 68 a4 b5 bd 43 ee 2c be
       0.030599922 -0.038502946 -0.08869249 -0.16887765
0001a0 84 15 db bd 04 a3 60 bc 6d e0 b1 3c 46 e7 bb 3d
       -0.10697463 -0.013710741 0.02171346 0.09174971
0001b0 25 8c 15 3c 62 82 81 bd f3 0e 00 3d d5 e0 82 3d
       0.009127651 -0.06323697 0.031264257 0.063905396
0001c0 59 97 b5 3c 78 2f f3 bc 91 cf 7e be 0d 61 b9 3c
       0.022166895 -0.02968572 -0.24883868 0.022629285
0001d0 6b 36 a0 bd 4f 84 54 bd 1c 99 83 3c fa e2 06 3d
       -0.078228794 -0.05188399 0.01606422 0.032931305
0001e0 d1 fd 96 3d 23 d5 15 bd bf 4e 6b bd 75 ea 8f 3d
       0.073726304 -0.036580216 -0.057448145 0.07027141
0001f0 8b 8a d8 bd b1 ea 08 3c 7f 5f 8f bd f6 5b 14 bd
       -0.105733 0.008356736 -0.07000636 -0.036220513
000200 06 70 89 bd 99 5a f0 bd 58 40 d6 3c f5 88 04 3e
       -0.0671082 -0.1173603 0.026153728 0.1294287
000210 e5 66 6f be cb d0 c1 3c 22 06 e2 bc 8c b6 bf 3d
       -0.23379095 0.02365913 -0.027590815 0.0936099
000220 fa 4e 35 3e 36 69 5f be e8 bc 66 be 64 5a 59 3d
       0.17705908 -0.21817479 -0.22533 0.05306472
000230 10 98 7c 3c 37 bf e1 3d cb f3 15 3c dd af 0c 3e
       0.015417114 0.110227995 0.009152363 0.13738962
000240 79 db 9f bc 68 ca 20 3e 8a 8a 3d bd 06 d0 da bb
       -0.019513832 0.15702212 -0.0462747 -0.0066776304
000250 73 be 87 bd 7d b0 00 3c 46 cc 88 3c 22 63 71 3d
       -0.06628122 0.007854578 0.016698968 0.05893243
000260 54 5a b6 bd 96 3b de bc 4d 92 ae ba 47 5a 9a bd
       -0.089039475 -0.027128022 -0.0013318748 -0.0753675
000270 e6 5e c0 3c 8b f2 c7 bd 09 cb 07 bd d6 92 13 bb
       0.023482751 -0.09763058 -0.033152614 -0.002251794
000280 30 9d 1c bd e2 3b 6a 3e 84 7a 1a bd 30 39 da 3c
       -0.038235843 0.22874406 -0.037714496 0.026638597
000290 c6 18 c0 bd f4 f9 d1 3a 88 f2 a5 bd 82 34 08 3e
       -0.09379725 0.0016019926 -0.081029 0.1330128
0002a0 6f a4 d6 bd d8 cc 01 be 09 0c e7 3d 6a 5d 6c 3b
       -0.10480582 -0.12675798 0.112815924 0.0036066421
0002b0 8e 6d 12 bd 2a 4a 2d bd 9b 51 37 3d db 8f 2c be
       -0.03574901 -0.042307056 0.04475556 -0.16851752
0002c0 72 e6 06 bb d4 f2 91 bd 3d 8d 77 3e e7 f5 70 bd
       -0.0020584133 -0.07126394 0.24174972 -0.05882826
0002d0 cc 84 c3 bd 5c 14 85 bb f0 5a 16 3d dd b0 d7 3a
       -0.09546813 -0.004061265 0.03670782 0.0016455908
0002e0 6a 0d 8d 3d 51 12 77 bd a2 23 e8 bc 91 e1 14 3e
       0.06887324 -0.060320202 -0.028337304 0.14539172
0002f0 70 1c e7 bc ad 05 b9 3c b4 e1 ba bd e5 db d7 bd
       -0.028211802 0.022585714 -0.09125081 -0.105399884
000300 3f 8b 26 3d 4f a6 07 be 1d 33 27 bc 0f 80 28 3e
       0.04066014 -0.13247035 -0.010205057 0.164551
000310 a5 bd 43 be 1c e0 75 be c3 f9 ae bd c5 63 0b be
       -0.19115312 -0.24011272 -0.08543732 -0.13612278
000320 3b a2 da 3d 06 b7 bf bc 46 f4 f4 bd 4e f1 f4 bc
       0.10675474 -0.023402702 -0.11960654 -0.02990022
000330 81 3a 6a 3d 81 ef 21 bd 59 b7 2b bd 3f 43 22 3d
       0.0571847 -0.03953505 -0.0419229 0.039614912
000340 81 94 a9 3d a7 94 5f 3b 51 6e 0e bc d3 c1 aa 3b
       0.08280278 0.0034115703 -0.008693294 0.005211094
000350 df 1b 8c 3d af 0e 0b be 3d 43 fb 3d 57 f2 3d 3d
       0.068412535 -0.1357982 0.12268684 0.04637369
000360 64 e1 64 bd a8 59 c7 bc 2b 95 6d 3c dd 2f 40 3e
       -0.05587901 -0.024334744 0.014500896 0.18768258
000370 bc 98 2a bc 40 d6 27 be f3 5c 5e bd 95 ba 5f bd
       -0.010412391 -0.16390324 -0.054287862 -0.054621298
000380 41 6f b3 3c 12 93 d3 bd c5 0a 29 3d 4f 66 40 3c
       0.021903636 -0.10330786 0.041270036 0.011743142
000390 9b d9 1b bb 15 fe 32 3d 9b 1e 25 3d f4 aa 6f bd
       -0.0023780826 0.043699343 0.04031239 -0.058512643
0003a0 45 1c 80 be ec 11 3d 3d 4e 9e 1a 3d b8 af e7 bd
       -0.25021568 0.04615967 0.037748627 -0.113128126
0003b0 a2 8c ac 3c ca a8 94 bb 29 2f 03 3e 28 56 97 3c
       0.021063153 -0.004536723 0.12810959 0.0184737
0003c0 a9 cc 05 be 92 5c 27 bd ce c5 8e be 2e 61 33 bd
       -0.13066353 -0.040859766 -0.27885288 -0.04379385
0003d0 d0 fc d8 bd ba 9b 14 bd 63 49 b2 bd 2d 25 0f bc
       -0.10595095 -0.036281325 -0.08705404 -0.008736891
0003e0 2f f3 37 bd fe 33 8c bd ef f4 ab bd bd 83 b1 3c
       -0.044909652 -0.06845854 -0.08396327 0.021669263
0003f0 c7 1c b7 bd bc fb 05 bd ac ee 1a be a5 9b 45 3d
       -0.08941036 -0.032710776 -0.15130109 0.048244137

out.bias f4 [3]
000000 cb 74 ed bc c9 d6 ba bd 54 87 67 3c
       -0.028986355 -0.09122998 0.014131386
