walls/snake_dql_walls.pt (torch, 152152 bytes, 6 tensors)

fc1.weight f4 [256, 15]
00000000: 8878 f2bd a826 4ebd 0247 66be 084d 4c3e
00000010: 00fe 2e3b 8573 4e3e 58d3 ec3d 0a94 c4bd
00000020: df8a b73d 9058 aabc 0f3e 53be 1fb3 4e3e
00000030: de44 1c3c 5308 9bbd 6dea c8bd dfe0 58be
00000040: 1497 233e a0fc 283d 00cf 3ebb cf56 1cbe
00000050: e443 50be 0139 18bd b464 53bc d086 0bbd
00000060: c22c 173e f80c fcbd b792 9fbd 66b0 4ebe
00000070: 9bff f33c 9d77 05bd 58b6 57bd 067b b83c
00000080: 2b29 6cbe b7d8 b6bd 8326 4c3e 05f4 c23c
00000090: 2d88 5fbe 7137 80be 87bb 85bd a1fa dd3d
000000a0: 1ec5 7c3e 0904 0c3e 3d4a 4e3e baa8 413e
000000b0: 957a 593e ec4f 12be 19d0 4bbe 4f69 853d
000000c0: f428 43be f224 323e 5e34 453c e4c3 7ebc
000000d0: fb57 673e b24f f1bd c59c 173e 08a1 95bc
000000e0: fd9b 32be 4fde 8dbd c92a 5a3e db89 323d
000000f0: 72c6 3b3e a89c 63bd df2f 8f3d a1ad 3b3e
00000100: 70a2 6cbe b089 60be 88b6 2fbd 7797 303e
00000110: 0f93 aa3d 21ae 1fbe d63e 58bd ac79 80be
00000120: bd1e c73d edff 8cbc be4a 13be dd61 f9bb
00000130: e89c 73bd d0ca 963d a5f1 663e 68b3 12be
00000140: 6719 053d a596 3dbe f69a d6bd 68ef dcbd
00000150: 882a 50be 4ccb 80bc 2c28 e1bc d7b0 da3d
00000160: e9d4 51bd eee2 11be fe66 f43d 5905 253e
00000170: b7b5 5fbe 9cb7 043e c1b3 563e ae1f 0f3d
00000180: 426e 1bbe 94ad 56bc a84d 6fbe 221c e93d
00000190: 84cd 8f3d ad33 133d c9ce 813e 8061 36be
000001a0: 12c5 5f3e 443c 84bd 5736 fb3d 43e7 323e
000001b0: 7d35 17be 9bbd 1d3e 426f f43d 4465 a33d
000001c0: 1745 cdbc 6204 913d 6f80 47bc c184 5d3e
000001d0: a096 97bd bdfd 4fbe de6d 273e e86d 44be
000001e0: be57 523e 401d ebbb 3a1f e3bd a77f 86bc
000001f0: 8e4a 5fbe f320 f9bd 49d0 58be 9613 2e3d
00000200: b51a 03be a009 e9bc a286 c9bd 31ba f83d
00000210: 3025 12bd 83f2 a3bd b817 5cbe 80da b1bd
00000220: b4b3 233e b069 9fbd a378 3a3e 1df7 3b3e
00000230: 7132 d8bd 9198 703e eed9 80be 7030 2abe
00000240: 52eb 2ebd ab83 ac3d fcec 8e3d 512f f6bd
00000250: 0386 80be 5acb 23bd 2614 b63d 404b 79bd
00000260: 0844 ef3d b674 91bd caa2 babd 80ce c43d
00000270: 822b 18be 5c19 f53c c196 0d3e 5071 2d3e
00000280: 540f 3abe 4cbf 333e 534e 593e 949a 04bd
00000290: d198 09be 796d 1f3e 1718 64be 6878 e4bd
000002a0: b925 a0bd 1dd4 49be cee0 cc3d 948d 233d
000002b0: c247 f8bd 4e0d ca3d 089d 393d 56e8 323e
000002c0: 3f91 66be ae38 27bd b445 333e d3cc 2cbe
000002d0: b7c1 42be fc5d 1a3e 2872 49bd 7d1a 7b3e
000002e0: 10a2 633e 6b2e 273e 264a 5b3b 687f c13d
000002f0: 9651 063e a548 383e 7137 bb3d f1cc c4bd
00000300: 85de d2bd 2bbd 64be d6db 053e 9e08 23be
00000310: 7d95 a0bd c4ee c03d f949 78be eb4e 133e
00000320: 9b08 1cbe 0dfc 5b3c 0df3 1e3c 4c74 51bd
00000330: 8a0c 7f3e ac46 1dbe a7c8 3cbc e4ac ca3d
00000340: d231 123e 19cf 073d ba58 33be 5af6 47bd
00000350: 7865 973d 6d08 5ebd 8e6f 703e d80f 02bb
00000360: 3389 84bb ad9e f23d 6ff2 e2bd 4a91 6abe
00000370: c796 4fbd be97 c5bd ff1a a6bd c2fa 0fbe
00000380: 894f 723e 25c5 5ebe fabb d53d 59a0 e03d
00000390: 1bb5 1c3e 9693 d6bd 44ec 3e3e 1a46 153d
000003a0: 2dd0 80be 1bf5 613e 632a 0bbe de6e 193e
000003b0: 4b5b bbbd df5d acbd 916a 703e 31b3 33be
000003c0: e3a5 633e d482 ad3b 3b16 11be 904a 593d
000003d0: 233a ec3d 1a17 713d f05c 533e 6a71 9cbd
000003e0: b5fc 693d c578 55be 4b0e 7bbe 0a5f 3fbe
000003f0: 7960 29be be69 72be 901f 093e 7120 213e
-0.11839396 -0.050329834 -0.22488025 0.1995126 0.0026701689 0.20161255 0.11563748 -0.09598549
0.089620344 -0.020794183 -0.20629142 0.20185517 0.009537904 -0.07569947 -0.09810338 -0.21179532
0.159756 0.041256547 -0.002911508 -0.1526749 -0.20338398 -0.03716374 -0.012902427 -0.034064114
0.14763168 -0.12307161 -0.077916555 -0.20184478 0.029784968 -0.032584775 -0.05266413 0.0225196
-0.2306258 -0.08928054 0.19936566 0.023797998 -0.2182929 -0.25042298 -0.065299086 0.10838819
0.24684569 0.13673414 0.20145507 0.1891202 0.21238168 -0.142883 -0.19903602 0.06514227
-0.19058591 0.17396906 0.012036411 -0.015549634 0.22592156 -0.11782779 0.14805897 -0.018265262
-0.17442317 -0.069271676 0.21305384 0.0435885 0.1833742 -0.05556932 0.069915526 0.18327953
-0.2310884 -0.21927524 -0.042898685 0.17245279 0.083288305 -0.15593769 -0.0527943 -0.25092828
0.0972266 -0.017211879 -0.1438398 -0.007610543 -0.05947581 0.07362902 0.22553118 -0.1432625
0.03249493 -0.18514498 -0.10478775 -0.107878506 -0.20328724 -0.01572194 -0.027484976 0.10678261
-0.051228438 -0.14246723 0.11933707 0.16115321 -0.21846662 0.12960666 0.20967008 0.03494232
-0.15178779 -0.013102908 -0.23369467 0.11382319 0.07021621 0.035937954 0.25353077 -0.17810631
0.2185252 -0.06456807 0.12266224 0.17471032 -0.14766498 0.1540436 0.11935283 0.07978299
-0.025057359 0.07080914 -0.012176617 0.21632673 -0.07401776 -0.20311637 0.16350505 -0.19182551
0.20541283 -0.0071751177 -0.1108994 -0.016418291 -0.21805784 -0.12164488 -0.21173204 0.042499147
-0.12803157 -0.028446972 -0.09840132 0.12144888 -0.035679996 -0.0800524 -0.21493423 -0.08684254
0.1598652 -0.0778383 0.18210082 0.18355985 -0.10556496 0.234957 -0.25166267 -0.1662004
-0.042704888 0.08423551 0.06978795 -0.12020744 -0.25102243 -0.039988853 0.08890562 -0.06086278
0.11682898 -0.07102339 -0.09113081 0.09609699 -0.14860347 0.029919319 0.1382704 0.16937757
-0.1816991 0.17553443 0.21221285 -0.03237398 -0.13437201 0.15569104 -0.22274815 -0.11155778
-0.07819695 -0.19709821 0.100038156 0.03992994 -0.12123062 0.09865819 0.045315772 0.17471442
-0.22516344 -0.04082554 0.17507058 -0.16875009 -0.19019209 0.15074915 -0.049181134 0.24521823
0.2222979 0.16326301 0.0033460944 0.09448129 0.1311706 0.17996462 0.09141434 -0.09609402
-0.102963485 -0.22337787 0.13072142 -0.15921256 -0.078410126 0.09420541 -0.24246968 0.14385574
-0.15237658 0.013426793 0.0097015025 -0.0511363 0.24907127 -0.1535899 -0.011522449 0.098962575
0.14276817 0.033156488 -0.17514315 -0.048818924 0.073924005 -0.054207254 0.23480055 -0.001984587
-0.0040446757 0.11846671 -0.11081397 -0.22906986 -0.0506809 -0.09648083 -0.08110618 -0.140605
0.23663153 -0.21754892 0.10436244 0.10968084 0.15303461 -0.104773685 0.18644816 0.036443807
-0.25158826 0.22066157 -0.13590388 0.14983699 -0.09148272 -0.08416342 0.23478152 -0.17548825
0.2223125 0.005295137 -0.14168637 0.053049624 0.11534526 0.058859922 0.20640922 -0.076388195
0.057125766 -0.20846851 -0.24517171 -0.18688598 -0.16540708 -0.2367315 0.13390946 0.15735032

fc1.bias f4 [256]
00000000: d63b 40be 1fbc 293d 99af 0c3e 1efc 47be
00000010: dfc7 acbc cc7b b0bc 523b f73d 2e2f c4bd
00000020: 99ff f63d a102 b5bd 0eb4 d53a b03d 2a3d
00000030: 261a 01be f1ba 5abe 5257 753e 3f25 02bd
00000040: d31f 2d3e 61a4 3a3e feff cebd ef12 82be
00000050: fb2e 3abe dadf 1b3e 1a14 ebbd 5067 4d3e
00000060: d2e8 7f3e bb2b 16be 84b3 6bbe 7a1c 803d
00000070: ff39 0bbe 5704 87bd f88d 35be f00f de3d
00000080: 70dd 28be 2a34 5e3e 2cc2 5d3e b08e f6bd
00000090: bfc1 8b3c 1989 103d e945 22be dbcb 27be
000000a0: 0bc3 07be 65bf 203e 06e2 78be 4f2a 0c3e
000000b0: 3f46 d33d 7adf 78be 1969 013e 6c75 0a3e
000000c0: e998 47bd 1981 0cbe 85d0 b33b b82a 71be
000000d0: f5d8 233e a245 8e3c 0694 023d 269c 5c3e
000000e0: b7eb ef3d 66db e83d f933 7f3e 6521 7f3e
000000f0: c28e 12bd 422f 423e 17ea 0d3e 6e68 263e
00000100: 7fb1 4d3e e72e f3bd 9f8f 683e 4ad2 39be
00000110: 4d61 85bc 9117 433e 1971 7bbe 47c2 513d
00000120: 98a1 bebd 0d9d 2a3e b566 383e b7ae cbbc
00000130: fa65 cbbc effa ad3d 5d98 04bd 0a1e 133d
00000140: eb73 6f3e 1aeb 353d ac60 c4bd 9600 11be
00000150: 3971 5dbe 7daa 27bb e763 5b3e a5cf 9e3d
00000160: 5af2 b0bd 2811 83be e648 45be 446e 163e
00000170: c595 8d3a ccf4 563d 4388 d03d be8c dd3d
00000180: fe02 5ebe af8d cb3c a46e 5b3e 0af0 5fbe
00000190: f278 4abe e2e6 52be 5831 0fbe 23cb 27bc
000001a0: 8d7a 213e b8a5 733e 37e3 30be e258 1d3e
000001b0: 135f 2e3c efec cd3d b5ba a3bd 8438 70be
000001c0: 7ee4 1c3e dc3e 92bd 13ef 3dbe 76c2 963d
000001d0: 21e6 ebbd 8fba 0ebe 0f81 453e cf4e 6e3e
000001e0: 7b39 28be 7fc2 623e f797 2b3e 89f5 3d3e
000001f0: 087b 863d 2154 a0ba 1084 1abe 64d4 af3d
00000200: 7632 013e bef9 45be 9263 473d 2865 a63d
00000210: 6d8a 3a3e c01c 98bd d744 80be e5e5 893b
00000220: 76b3 be3d 9faf 7dbc 52a3 2abd 2c6b ee3c
00000230: 28b1 ce3d 96a2 cabd 2cda 753e 020e c4bd
00000240: e615 dfbd e08f 1f3e 1949 413d 5827 18be
00000250: ee7f 22be 5791 5abc bd38 123d 4c38 c23d
00000260: 172c 07be bbdb 37bd 4485 e83d a5cb 153e
00000270: a04c c8bd 0f65 82be 7b89 103e b108 10bc
00000280: 3295 093e 3658 86bd 9196 a5bc 2d0c 023e
00000290: adc1 583e 3a51 6abe ab41 a2bd 87c1 453d
000002a0: 1c92 f33d 179d d63d 7e52 a4bd ea12 a73c
000002b0: a31b a2bd 04e7 acbd 5c46 333d 8107 cdbd
000002c0: 602a 393e efd7 90bd 541b 703c 36a0 2ebe
000002d0: 49d4 653e b7e1 e5bd beec 82be 3f37 003e
000002e0: 57a0 2ebd e0ab 62bd 9327 d4bd a2d6 e03d
000002f0: 573d c23d 9c86 063e e718 2fbd e150 1ebb
00000300: c057 b93d e892 6c3e fa89 33be 1e88 15bd
00000310: 4716 56bd b75c 753d 400b 293e f42a 2f3e
00000320: 6d7a 74be c46c e13d 881c 033e 83db 3abd
00000330: b9ef c33d 85c3 d6bd 5dde 5bbe 68b4 813d
00000340: 0e8d 0bbd f768 f3bc d99a 82bd 5af7 043d
00000350: c400 503e e3ef 86bc 77f9 64be a48d 843e
00000360: f9a9 f43d 2b1a b13c 12dc 79be 629a d73d
00000370: d583 7f3e a00e c73d f4f4 2d3e 0075 2abd
00000380: f7ba 70be 0c81 23be 81da 303e b9fd 64be
00000390: edf8 84bd 7312 10bd 0544 49be 2fd1 38bb
000003a0: 064d 093e 563f 363c cb51 c7bd 5026 ff3d
000003b0: 80b2 003d a968 07be 4245 6b3e f9ae 813e
000003c0: b22f 123d a7ee e5bb 2cff 433e 8695 8fbc
000003d0: 47bf 21be 5b99 08bd 6b83 2bbd 6b21 5fbe
000003e0: f49f 12bd b8ec 5dbe b926 05be 7472 323e
000003f0: fcd6 6abe 17ab 143e 9961 753e 5a1a 20be
-0.18772826 0.041439172 0.1373886 -0.19529769 -0.0210914 -0.021543406 0.12071861 -0.09579311
0.1206047 -0.08838392 0.0016304271 0.041562736 -0.12607631 -0.21360375 0.23959091 -0.031773802
0.16906671 0.18226768 -0.101074204 -0.2540507 -0.18181984 0.15222111 -0.114784434 0.20058942
0.24991158 -0.1466512 -0.23017699 0.062554315 -0.13596343 -0.06592625 -0.17729938 0.108428836
-0.16490722 0.21699587 0.21656102 -0.12038934 0.017060159 0.035286997 -0.15846981 -0.16386358
-0.13257997 0.15698011 -0.24304971 0.13688014 0.10316133 -0.24304 0.12637748 0.13521355
-0.04872981 -0.13721122 0.005487504 -0.23551452 0.16000731 0.017367188 0.031879447 0.21543941
0.11714881 0.11369972 0.2492217 0.24915083 -0.035780676 0.1896334 0.1385883 0.16250774
0.2008724 -0.1187418 0.22711037 -0.18146625 -0.016281748 0.19051959 -0.24554862 0.051210668
-0.09308165 0.16661473 0.1800793 -0.024863584 -0.0248289 0.084951274 -0.032371867 0.03591732
0.23384063 0.044413663 -0.09588751 -0.1416038 -0.21625222 -0.0025583797 0.21424828 0.07754449
-0.08639975 -0.25599027 -0.1926609 0.146905 0.0010802081 0.05247955 0.1018224 0.1081786
-0.21680829 0.024847833 0.21428925 -0.21868911 -0.197727 -0.20595887 -0.13983667 -0.010241303
0.15769406 0.23793685 -0.17274176 0.15365937 0.010642785 0.10054957 -0.07994596 -0.23459059
0.15321538 -0.07140896 -0.18548231 0.07361309 -0.11518503 -0.13938354 0.19287513 0.2327225
-0.16428177 0.22144507 0.16757189 0.18550695 0.06566435 -0.0012232104 -0.1508944 0.08585432
0.12616906 -0.1933355 0.048678942 0.08124763 0.18216868 -0.074273586 -0.2505252 0.0042083138
0.09311573 -0.015483766 -0.04165966 0.029103838 0.100923836 -0.09894292 0.24009007 -0.09572984
-0.10892849 0.15582228 0.047188852 -0.14858758 -0.15869114 -0.013340316 0.03569864 0.09483394
-0.13200413 -0.044887286 0.113535434 0.14628465 -0.0978024 -0.25467727 0.14114945 -0.008791135
0.1343582 -0.06559794 -0.020213397 0.12699957 0.21167631 -0.22882548 -0.079226814 0.048280265
0.118931025 0.10479181 -0.08023547 0.020394761 -0.079154275 -0.084425 0.04376827 -0.10011197
0.18082571 -0.07072436 0.014654953 -0.17053303 0.22444262 -0.11224692 -0.25571245 0.12521075
-0.04263338 -0.055339694 -0.10359111 0.10978438 0.09484356 0.13137287 -0.042748358 -0.0024157094
0.0904994 0.23102915 -0.17533103 -0.036506765 -0.05226734 0.059902873 0.16508198 0.17106229
-0.23874827 0.110070735 0.12803853 -0.0456195 0.09567208 -0.10486511 -0.21471544 0.06333238
-0.034070067 -0.029713137 -0.06377191 0.032462455 0.20312792 -0.016471809 -0.22360788 0.25889313
0.11946482 0.021618923 -0.24400356 0.10527493 0.24952634 0.09719586 0.16987973 -0.041615486
-0.23508821 -0.15967196 0.17270853 -0.22362413 -0.06492791 -0.035173845 -0.19654854 -0.0028200855
0.13408288 0.011123499 -0.09732398 0.124584794 0.03142023 -0.13223518 0.22975639 0.25328806
0.035690017 -0.007016975 0.19140309 -0.017527353 -0.15795623 -0.033349376 -0.041873377 -0.21790092
-0.035797074 -0.21672332 -0.13003053 0.17426473 -0.22933573 0.1451839 0.23963012 -0.15635052

fc2.weight f4 [128, 256]
00000000: 811d c4bb 8c30 40bb 26b1 f63b 166c 233d
00000010: a11c 41bd bcad d63c 5caf 70bd b23d d0bb
00000020: cac0 55bd a835 3cbd 5866 133d e011 3ebd
00000030: a649 3f3c ab1c 82bc bb8c d43c 6397 ecbc
00000040: 8596 bfbc a826 2ebd 7366 51bc 3ec5 80bb
00000050: 5652 913c bfc1 283d c2ae 663d f4d2 41bd
00000060: 24ff e83b dbeb 22bd 46b7 6f3d 38ab 3dbd
00000070: 2794 49bc 2ef2 993c 0417 72bd 16c2 65bb
00000080: 7560 213c 23d0 82bc 9756 76bd 7cbc b8bb
00000090: b79c 61bb db4a a9bc 2b87 233d 3412 793d
000000a0: 022b 5bbd 773b 103d 15a8 b4bc 7de2 453d
000000b0: b642 c43b cda9 723c cdf8 323d 85bd 933a
000000c0: 5ccd 6f3d c6c8 183d f66a b8bb a47a b53c
000000d0: f745 753d 5e35 4f3c d0bb 13bd 747e 083d
000000e0: b415 60bd 3f39 08bd a159 eebc 85dc dc3c
000000f0: ca27 25bd 2373 f9bc 8ae9 3c3d e64d 3ebd
00000100: 15c0 523d 6b4b 62bd 8d8e 06bd 3099 d4bc
00000110: bf6f 26bd 3dd1 3d3c bced 39bd 9fb9 59bd
00000120: fc5c 70bc fdac 823b d9ff 733d 1ef9 cabc
00000130: 75b0 383d a86a f7bc 519d 41bd b759 0cbd
00000140: 3974 af3c aa56 f1bb 8637 783d ce94 223d
00000150: 983e 263d 5c70 ab3c 00ff 3f3d d82a 1dbd
00000160: 22b9 253d a847 a03c 3d70 aabb 8fbb 6bbd
00000170: 8911 a53c 3f07 97bc ff49 783d 28b2 94bc
00000180: fbaf e5bc c85d 923c 6a50 7d3d 1dd5 543d
00000190: e4de 1e3d 4761 06bd a2d5 5a3d 8fd1 18bd
000001a0: 7e7e 65bd dd3f 803d 9a0d 113d b895 dcbc
000001b0: acd2 f3ba f0f2 463d 247f 903b 54b7 383d
000001c0: 5b8d 583d fa22 e4bc da0a bd3b 95f7 f93c
000001d0: 0a70 6ebd 4499 163d 2fd6 27bd 6af5 023c
000001e0: bb5e 503d 6fca a3bc 87c4 5bbc 0155 37bd
000001f0: dfd8 babc 384e da3b 2bdd 36bd c391 53bc
00000200: 380a d7bc 6551 4e3d bf6a 38bd 297c 08bd
00000210: 3d35 a03b a6c1 52bd 44fa c33c 6ef0 ba3c
00000220: 76c7 c7bc 3c1a 0a3b 8683 b13a 1a3a f43b
00000230: eb21 553c 4b1d 85bd 5f77 70bd 4796 813d
00000240: 9e78 d9bc de56 41bd 52f8 0a3a 9e46 33bd
00000250: 1e64 853d 11fd 0bbd 523d 4cbd f551 b3bc
00000260: 8bfe 52bd 1cb1 75bd f4fe eebc 576b 763d
00000270: 327d 3d3d 9434 413c 27e0 463b 7831 183b
00000280: 4284 4a3d c346 573d 4514 c7bc 6d2f 193d
00000290: a9d9 36bd 0e32 233d cda5 c73c 0a75 9d3c
000002a0: 995d 133d 8a36 ff3b 4aa5 4e3c 0f2b 72bd
000002b0: 17a2 7a3d 3cae 73bc 424b b2bc b364 e5bc
000002c0: 4104 823d 6753 14bd daad a7bc a163 fabc
000002d0: dc56 023b d313 b6bb 1000 55bc e474 ae3c
000002e0: 5d50 123d 507c acbb a393 603d f308 823d
000002f0: 3c39 6ebd d908 1cbd c47c 483d 3cad 1e3d
00000300: 1e46 13bd f59c 033d 3c56 e13c 2a4f 14bc
00000310: 48b3 54bd 7623 27bd 925b 343d 8c8c cbbb
00000320: 21c0 143d 212e 733d 3765 67bd 6dbe c43b
00000330: 078a 5c3d 9f38 fbba 119b 053d fd4f f23c
00000340: bb9a 20bb e07e 6a3c ba8d 48bd 6ddd 1b3c
00000350: 6e77 0b3d 4b1f b5bc e43f 183d 3999 6b3d
00000360: 4cfa 73bd c0df c93c 58db 7dbd a4d1 89bc
00000370: 1cb2 c0bc fc9c 26bc a151 033d 6be9 adbc
00000380: 2dc2 3bbd 0d96 b7bc 8050 22bb 74bc d5bb
00000390: 69a9 603d 8fe6 83bc 5087 b5bc df49 7fba
000003a0: eda8 2bbd 8d43 07bd 0117 4aba 0c1c d3bb
000003b0: 1359 803c 08f5 67bd d3b2 0ebd 0bb0 9bbc
000003c0: 953d 33bd c751 6bbc 9159 583c 3016 113d
000003d0: de2d 1d3d 5868 0abb eaf1 5d3d 54aa 5c3c
000003e0: 5e9a ec3c 97a9 a23c e15f 3cbc 8ee4 93ba
000003f0: 4685 963c d177 67bd eabc f93c db78 873c
-0.0059849625 -0.0029325811 0.007528442 0.039898 -0.047146443 0.02620589 -0.058760986 -0.006355011
-0.05218581 -0.045949608 0.035986274 -0.046403766 0.011675274 -0.01588281 0.025946012 -0.02888078
-0.023387203 -0.042517334 -0.012780773 -0.003929763 0.017739456 0.041200396 0.056319006 -0.04732032
0.0071104933 -0.03977571 0.058524393 -0.046305865 -0.012303389 0.018792238 -0.05910398 -0.0035058311
0.009849657 -0.015968388 -0.060141172 -0.0056377035 -0.0034425685 -0.020665577 0.039923828 0.060808375
-0.053507812 0.03521296 -0.022052804 0.0483117 0.005989398 0.0148109915 0.043694306 0.0011271691
0.058545455 0.037300847 -0.005627985 0.022153206 0.059881177 0.012647001 -0.036067784 0.03332372
-0.054708198 -0.03325772 -0.029095473 0.02696062 -0.04032115 -0.03045041 0.046121158 -0.04646101
0.051452715 -0.055247705 -0.03285079 -0.025951952 -0.040633913 0.011585531 -0.045392737 -0.053155538
-0.014670607 0.003987907 0.059570167 -0.024776991 0.045090158 -0.030202225 -0.04726917 -0.034265246
0.021417724 -0.0073650675 0.060599826 0.039692692 0.040587038 0.0209276 0.046874046 -0.038370937
0.04045976 0.019565418 -0.005201368 -0.057551917 0.020149963 -0.018436072 0.060617443 -0.018151358
-0.028038016 0.017866984 0.061844267 0.051961053 0.038786784 -0.032807615 0.053426392 -0.037309226
-0.056028835 0.06262181 0.035413362 -0.02692686 -0.0018602214 0.048571527 0.0044096876 0.04509671
0.052869182 -0.02784871 0.005769116 0.030513564 -0.058212318 0.03676726 -0.040975746 0.007993082
0.050871592 -0.019993989 -0.013413555 -0.0447588 -0.02280849 0.0066621564 -0.044644516 -0.01291317
-0.02624999 0.050370593 -0.045023676 -0.033321533 0.004889159 -0.05145421 0.023923047 0.022819724
-0.024387103 0.0021072766 0.0013543225 0.0074532153 0.013008575 -0.06499728 -0.05870759 0.06327491
-0.026546773 -0.047201984 0.0005301285 -0.043768518 0.065132365 -0.03417689 -0.049863167 -0.021889666
-0.051512282 -0.059983358 -0.029174305 0.06016096 0.046261974 0.011792321 0.0030346008 0.0023222845
0.049442537 0.052557718 -0.024301657 0.037398744 -0.04464117 0.039842658 0.024371052 0.019220848
0.035977934 0.007788484 0.01261265 -0.059123095 0.061189737 -0.014873084 -0.021764401 -0.028002119
0.063484676 -0.03621235 -0.020468641 -0.030565085 0.0019888198 -0.0055565624 -0.013000503 0.021295972
0.03572117 -0.0052638426 0.054828297 0.06349363 -0.05816005 -0.038094375 0.04894711 0.038739428
-0.03595554 0.032132108 0.02750694 -0.009052077 -0.05192879 -0.040805303 0.04403264 -0.006211823
0.03631604 0.059370164 -0.05649301 0.006004146 0.05384257 -0.0019166655 0.032618586 0.029579157
-0.002450629 0.014312476 -0.048963286 0.009513241 0.034049444 -0.022109648 0.037170306 0.05751917
-0.059564874 0.024642825 -0.06197676 -0.016823597 -0.02352243 -0.010169264 0.03206027 -0.021229466
-0.045839477 -0.022410417 -0.002476722 -0.0065227095 0.054849062 -0.01610115 -0.022159249 -0.00097384857
-0.041909147 -0.033023406 -0.00077091163 -0.0064425524 0.015667474 -0.056630164 -0.03483851 -0.019004842
-0.0437599 -0.014362759 0.013204948 0.03542155 0.03837382 -0.0021119323 0.054185785 0.013468344
0.028882202 0.019856257 -0.011497469 -0.0011283325 0.018374097 -0.05651075 0.030485589 0.01653712

fc2.bias f4 [128]
00000000: cf5c 763d 0d96 88bb ed20 6f3c a051 493d
00000010: b0a7 25bd 4293 41bd 9c86 2d3d 78d2 e03c
00000020: 6529 ccbb 16ef e0bb 5e33 eb3c 3f61 03bd
00000030: fe5c 0bbd 181c 28bc e57e 6dbc 8fd5 323d
00000040: bc19 5bbd 0058 32bd b93d 403d 61ef 1cbd
00000050: bd05 0ebd ffab 293d d6cb 7b3d 0ce8 133d
00000060: 2125 4e3d 572f a43c 783d 093d 3ffc 233d
00000070: e17c 7abd da94 723d d770 2b3d e416 a83c
00000080: 85db 20bd 45c0 4e3d d8b6 95bb 84d6 773d
00000090: b052 0e3d 70e7 f83c cdec 103d 1041 90bc
000000a0: a681 513b e485 48bd 9b40 24bb 2448 5fbc
000000b0: 60cc 693d 7584 78bb 4885 e4bb 4e77 36bd
000000c0: b92b a13c 48d5 b0bc b3a6 023d 3337 783c
000000d0: d0e3 14bd d1ef 81bd 4e12 76bd e9dd 79bd
000000e0: 4797 903c cca6 b4bc 2da2 8c3c 46be 28bd
000000f0: b5a3 e83c bb19 d63c 6b3e 0cbd 654a a8bc
00000100: 8867 fdbc 6ebc 1abd f72e 273d 3f2c 273d
00000110: 1c49 493d 7f15 76bc 5caa e1bc 21d1 f9bb
00000120: 89d2 d43c 3b3e 783d d006 8b3c bae6 6dbd
00000130: 52ac 8e3c 9b02 5c3d e214 a43c 963d 64bc
00000140: 0878 103b f44f 233d d0f1 06bd 7c70 9abc
00000150: 381f 06bd f6c6 9dbc 37c9 fa3c 318e 5c3c
00000160: a57c 7f3c 1c94 483c cf65 c1bb 8da1 273d
00000170: d33b 59bd 839b 57bd 48a8 9c3c 94e9 48bd
00000180: 4328 443c f4e5 0c3c 0068 773c 6d4f 67bd
00000190: f809 7b36 42f0 6e3d 0024 39bd 899f d9bc
000001a0: d8a7 fdbc 6d62 8a3c 4e97 54bd 6951 413d
000001b0: 961a 263d b2aa 56b9 c453 4bbd 243a 19bd
000001c0: f712 9e3c 693a 783c 6956 883c c031 e2bb
000001d0: 2096 e43c 2c4c efb9 28d7 d13c 34b4 773d
000001e0: 1e8e 223d fca8 5ebd 2728 29bd 0a71 123d
000001f0: c6da 4bbd 9b85 9a3c e0b5 63bc 9861 ff3c
0.060147103 -0.004168278 0.014595252 0.04915011 -0.040443122 -0.047259577 0.0423647 0.02744411
-0.0062305206 -0.0068644388 0.028711017 -0.032075163 -0.03402423 -0.010260604 -0.014495586 0.043660697
-0.05349134 -0.043540955 0.046933863 -0.038314227 -0.03467344 0.041423794 0.06147369 0.03610997
0.050328378 0.020042105 0.033505887 0.040035482 -0.06115425 0.059223987 0.04185566 0.020518728
-0.03927185 0.05047633 -0.004568916 0.060507312 0.034746826 0.030383795 0.03538208 -0.01760915
0.0031968146 -0.048955813 -0.0025062922 -0.0136280395 0.057079673 -0.0037920747 -0.006973896 -0.04454737
0.019674169 -0.021586075 0.031897258 0.015149879 -0.03635007 -0.063445695 -0.06007605 -0.061002646
0.01765026 -0.022052191 0.017167175 -0.041197084 0.028398374 0.026135316 -0.034239214 -0.020543287
-0.030933157 -0.037777357 0.040816274 0.04081368 0.04914199 -0.0150197735 -0.027547054 -0.007623807
0.025979297 0.060606223 0.016971022 -0.058081366 0.017416153 0.053713422 0.020029489 -0.013930699
0.00220442 0.03987117 -0.032945454 -0.018852465 -0.032744616 -0.019259911 0.030613525 0.013461635
0.015593682 0.012242343 -0.005902029 0.04092555 -0.05303557 -0.052638542 0.019123212 -0.049050882
0.01197249 0.008599747 0.015100479 -0.05647223 3.7407717e-06 0.058334596 -0.045200348 -0.02656533
-0.030963823 0.016892636 -0.051902108 0.04719678 0.040552698 -0.0002047222 -0.049640432 -0.037408963
0.019296153 0.015150645 0.016642766 -0.0069029033 0.027903616 -0.00045642385 0.02561529 0.06047459
0.039686315 -0.054360375 -0.041298058 0.035752334 -0.049769185 0.018862536 -0.013898343 0.031174466

out.weight f4 [3, 128]
00000000: b31a 8dbd 00e0 5cbd a676 6abc 42ac e4bc
00000010: c4a1 5bbd 793c 0fbd e28e 83bd 3d8b 613d
00000020: b925 863d 4c20 1dbd f521 d63c 8706 033d
00000030: 09a5 243d a398 ba3c ba01 5fbd 3040 bb3b
00000040: a285 613d a282 3c3d 1605 4dbd 469d ac3d
00000050: 09bc f83c 1481 713d f1c1 923d 5e99 62bd
00000060: 60d3 2ebc b868 8b3d 1ff3 093d 705d 923d
00000070: f993 d43c 23a8 8d3d 2902 34bd 46a0 953d
00000080: d73b 693c 94de b0bd 1c5a 9e3d dcff 93bd
00000090: 975a cd3b cbb1 a7bd 0dbf 893d 6bb1 9e3d
000000a0: b4e6 213d f35a 88bd 989a 083d ab9e 99bb
000000b0: bfbc 4b3d 14d8 7bbd 568f 8dbd 0001 f83b
000000c0: 119d 53bc 0bd0 253c 8b57 2c3d b536 9dbb
000000d0: 0fe4 b3bd 5c39 a13d f82f c2ba 1b17 63bd
000000e0: 4078 64bd 8072 36ba 6c85 be3c 8d03 b13d
000000f0: e94b cb3c 9a55 6a3d e483 8abd 096f 3dbd
00000100: 0373 873d 56f4 a4bd d6ae 54bd 5d51 9dbd
00000110: e06b 80bd d622 84bd 9486 e6bc a724 6fbd
00000120: ea58 523c d8f1 45bd b593 a03d 10d4 513c
00000130: a304 40bd 858a 75bd 9055 05bc ead2 a1bc
00000140: a0fe b9bc 80bc 19bd 6b84 653d 3deb 8cbd
00000150: 8936 733d d5bd 6ebb 034a b23d cf26 94bd
00000160: 86f9 b03b ccba d4bc 623e 70bd d95e 63bd
00000170: b865 9ebc 1ad0 48bc b696 81bd 0c13 123c
00000180: 50cd 88ba eafa 0bbd 415b a2bd e5e6 eabc
00000190: 5897 aebd e826 3bbc cba9 8e3d c719 a43d
000001a0: 8824 1a3c e0e5 74bd 74f9 943c bc50 9dbd
000001b0: 7daf 92bd 5dfc 9cbd b428 db3c 76b1 6fbc
000001c0: 4234 d13c 851b 343d fece 62bd f684 99bd
000001d0: 277d cfbc 30b6 e0bc 6125 1abb 9c94 d03c
000001e0: 74a1 b2bd ead1 26bd ba66 d73c 1782 b73c
000001f0: dd1e 3bbd 9f66 82bd 70d8 9a3c a0f1 d2bb
00000200: bf12 913c e21b 9ebb 3203 1dbd d40c 7e3b
00000210: ea59 e63c 07a5 693c f87a 8b3c 839b 05bd
00000220: 99f0 5ebd d295 adbd b6c7 10bb 471a f9b9
00000230: 0ed4 6c3d 4d00 87bd cf48 9c3d 1567 933d
00000240: 854b 2abd fab4 f0bc c94f 1a3d fba4 4b3a
00000250: 7c86 fbbc 23bc 1fbd adc3 83bd b030 023d
00000260: 8b00 593c 6511 e4bc 3bac 33bc a6dd 173d
00000270: daff d33c 9400 9dbd 94ed 913d 7b34 8fbd
00000280: 397b c1bc b394 aebd 655f 2abd 52a4 ba3c
00000290: 0ffe 4b3d 6690 fa3b 8093 1dbc c292 a5bd
000002a0: 5768 46bd c47a 8ebd 9301 a0bc 146b 86bc
000002b0: 10f8 1cbc 4981 8c3d b459 b63c 8c0e bcbc
000002c0: 0b5d a2bd 667a e6bc a90b ccbc c80e 09bd
000002d0: e9a0 d73c 1704 1c3d 0282 9a3d 98d7 903c
000002e0: 5625 66bd 52b7 34bd 42a2 16bd b092 9f3c
000002f0: 2bdf 37bc 4420 49bd 21dc 9abd 2479 25bd
00000300: fb65 95bd 4f2d 4a3d 7a49 0cbd d15a 2bbc
00000310: a953 863c 545a d43a fbe9 73bc 96e9 cfbb
00000320: 6155 25bd 0869 37bd 9802 80bc b9e2 3ebb
00000330: c9c1 84bd a0d6 593c 2f7a 8d3d b964 89bd
00000340: fc8d a53c 14b8 58bd 657d 953d 704a b1bd
00000350: 964f 0cbd c9dc 9b3d 2237 8d3d 3216 8bbd
00000360: 19e6 afbd f9af 703d 2131 96bd 894c b73c
00000370: 74be 9a3c 40e1 46bc cbc5 003d 80eb 99bd
00000380: 697c 5bbb 42ea 713c 5d7b 923d 618c a6bb
00000390: 912b a7bd 7d4e 99bd bfac 23bd f850 4b3d
000003a0: 2a5a 68bd 083e 6a3d 9bc4 8d3d dcec 6d3d
000003b0: a5fa a1bc 4e1f afbd dc5e ca3c 4bb9 24bd
000003c0: 67ee 603d 108d 27bd f6e0 a53d 0d3b 27bd
000003d0: a64d 193c 0157 42bb ed10 93bd f06a 72bc
000003e0: a043 943d 78bc 263c 62ab ea3c 827a a0bd
000003f0: 90c5 89bc f2d0 253c f680 ac3d 0e02 92bd
-0.06889858 -0.05392456 -0.014310515 -0.02791417 -0.05362107 -0.03496978 -0.06423737 0.05506443
0.06550164 -0.03836088 0.026139239 0.031988647 0.040196452 0.022777861 -0.054445006 0.005714439
0.055059083 0.04602302 -0.05005368 0.08428435 0.0303631 0.05896099 0.07165898 -0.055322044
-0.010670513 0.06807083 0.033679124 0.07146728 0.025949465 0.06916835 -0.043947373 0.0730596
0.014235458 -0.086362034 0.07732031 -0.07226536 0.0062669027 -0.08188208 0.06725893 0.077486835
0.039526656 -0.06657972 0.033350557 -0.004688104 0.04974055 -0.061485365 -0.06912105 0.0075684786
-0.0129158655 0.010120402 0.042075675 -0.0047977814 -0.08783733 0.078722686 -0.0014815321 -0.055441957
-0.05577874 -0.0006959811 0.02325698 0.086432554 0.02481647 0.057210542 -0.067634374 -0.04624847
0.066137336 -0.08054416 -0.05192455 -0.076815344 -0.062705755 -0.06451957 -0.028140344 -0.058384564
0.012838582 -0.048326343 0.07840673 0.012806907 -0.046879422 -0.059946556 -0.0081380755 -0.019753892
-0.022704422 -0.037533283 0.056034487 -0.06880806 0.05937818 -0.0036429067 0.08705523 -0.07233965
0.0054008393 -0.025967978 -0.058653243 -0.055510376 -0.019335613 -0.0122566465 -0.06327574 0.008915674
-0.0010437164 -0.034174837 -0.079275616 -0.028674552 -0.0852496 -0.01142285 0.06965979 0.08012729
0.009408124 -0.05978954 0.018185355 -0.076814145 -0.07162378 -0.07665322 0.026752807 -0.014629712
0.025537614 0.043971557 -0.055373184 -0.074960634 -0.025328232 -0.027430624 -0.0023520815 0.025461487
-0.08722201 -0.040727533 0.026294101 0.022400899 -0.04568373 -0.0636723 0.018902034 -0.0064374954
0.017709134 -0.0048251012 -0.038333125 0.003876497 0.028119046 0.014260537 0.01702641 -0.03261901
-0.05442867 -0.084758416 -0.0022091693 -0.0004751256 0.05781942 -0.06591854 0.07631075 0.07197396
-0.041575927 -0.029383171 0.037673745 0.00077684195 -0.030703776 -0.03899778 -0.064338066 0.031784713
0.013244758 -0.027840326 -0.010966356 0.037076615 0.025878835 -0.07666126 0.071253926 -0.06992432
-0.023618327 -0.08524456 -0.04159488 0.022783432 0.049802836 0.007646608 -0.009617686 -0.080846325
-0.04843935 -0.069570094 -0.019532 -0.01640848 -0.009580627 0.06860597 0.02225957 -0.022956155
-0.07927903 -0.028134536 -0.024907904 -0.033461362 0.026321845 0.038089838 0.07544328 0.017680928
-0.05618795 -0.04412014 -0.036775835 0.019479126 -0.011222641 -0.049103037 -0.075615175 -0.04039873
-0.07294842 0.049359616 -0.03424976 -0.010458664 0.016397314 0.0016201236 -0.014887328 -0.0063449843
-0.040364627 -0.0447779 -0.015626237 -0.0029126836 -0.06482274 0.0132957995 0.0690807 -0.067086644
0.020209305 -0.052909926 0.07299308 -0.08656776 -0.034255587 0.07610471 0.068952814 -0.06791343
-0.085888095 0.05876157 -0.07333589 0.022375362 0.018889643 -0.012138665 0.03143863 -0.07515621
-0.0033490902 0.014765324 0.07152436 -0.0050826524 -0.081626065 -0.074856736 -0.039959665 0.049637765
-0.056726612 0.057188064 0.06922265 0.058087215 -0.019772837 -0.08550893 0.024703436 -0.04021577
0.05491486 -0.040906012 0.080995485 -0.0408278 0.009356892 -0.002965391 -0.07180963 -0.014796004
0.07239461 0.01017677 0.028646175 -0.078358665 -0.016817838 0.010120617 0.08423035 -0.07129298

out.bias f4 [3]
00000000: 06b2 3e3d d6e8 833d d035 14bc
0.046556495 0.06440894 -0.009046033
